latest_cnn.pth (torch, 494453 bytes, 10 tensors)

conv_layer1.weight f4 [32, 3, 3, 3]
00000000: 70e8 f93d ccaa e93b 03d2 7f3e cb1b bdbd
00000010: dde0 a83d eae2 36be 2b60 6dbd 5f57 abbd
00000020: 34c2 753e aa8b a33d e179 793e 8f7d e93d
00000030: 52f6 503d d57f e0bd 150f 35be 701f 053d
00000040: c62f a7bd f3b3 da3b 12c1 2a3e f202 2b3e
00000050: 67c9 493e fba5 5d3e 01af 35be 79e4 86bd
00000060: 5e8b a3bd 8da9 4ebe 9ac8 3abe 75a3 84bd
00000070: 6514 9fbb 2704 ab3e f677 d5bb efa3 59be
00000080: 91a9 40be 9950 85be 1fae e33d 3140 6fbe
00000090: 0994 723d c1c2 4fbe 4050 13be c442 753e
000000a0: ea8c 063d 14e3 86be 83a4 4f3e 3ef7 9e3e
000000b0: f0d4 c83d 9692 523d 3ce5 7fbe 820f 81be
000000c0: 846b 533e 5888 863d 1b30 5e3b b7cf 843e
000000d0: c972 dd3d 2fc7 5f3b 7b9d d2be e7a7 9c3e
000000e0: be6c 16be afa1 a3bd 82a6 fd3e dc58 863d
000000f0: d970 0dbe 50b6 983e 169c 4fbe 1d9e 8ebd
00000100: d9b8 eb3d 34a0 51be 610c 8cbd 07b5 023e
00000110: 46c0 89be 591e 0ebe 5261 7c3e d829 b3be
00000120: d6cc 7cbd 7d93 883e d860 5d3d 2f98 1cbe
00000130: 7a81 663e a90a 1dbe 9f21 d33d b662 2c3d
00000140: e6bb 12be 8b2e b03e 1c04 0a3e 46f6 90be
00000150: d3b5 b43e 0451 8b3d aa35 c63b c352 343e
00000160: ab2b 0f3e a53e 54bd b043 27be 6246 80be
00000170: b8ae 893d 04fb 70be ddab 853d 66d8 95bd
00000180: 54d3 64be 4434 64bd b7f9 c53c 4aff 1dbe
00000190: 06e8 ef3d 4ffb ee3e 4746 16be cebe 27be
000001a0: 8d99 c43e a360 58be 5078 31be 59f6 543e
000001b0: 2e8e adbe a3e5 c7be fe03 f5be fd50 913d
000001c0: ef92 f93d 3bce 02bc f032 dd3e e70e a43e
000001d0: 078e bc3e dac1 913d c299 7ebe 0a26 a9be
000001e0: 8db6 b5bd 638f 003e d136 253e da57 26bb
000001f0: 9296 f33c edaf 1f3e 0f67 3d3e 3cf2 173e
00000200: eb86 363e d7a8 a1bc 2189 3fbd c8ed 083e
00000210: cb85 27be 2c43 62bd 999b 5fbe 17d1 a2be
00000220: a41f 11be 212d 923e ef37 9a3e 35cd 813e
00000230: 28eb d4be 1655 e13c f7f6 04be 95bc a73d
00000240: eebd 73be 69b2 89bd 994e 273e 44e4 913e
00000250: cfab bb3e 6387 7fbe fe68 97bc 8655 a4be
00000260: 164b 263e 4d11 5bbe 5736 f3bd b228 ab3e
00000270: a54a 9d3d 0b92 883e a665 afbe b594 8b3d
00000280: 2586 58bd 39c6 83bc e901 413e c124 91be
00000290: 9bbe da3d 8f9f 8b3e db2a 38be 9fa8 60be
000002a0: 9be8 1f3e 5856 603e 3c04 9a3d bff7 3e3e
000002b0: a606 a5be 8897 2f3e 987e 793d 99c1 ab3c
000002c0: bc66 1abe 2e6b 20be 4811 943e d295 f1bd
000002d0: e032 ebbd e9a0 03bd 1533 f5bc d400 243e
000002e0: f7d3 f03d 4960 03be 7310 07be 28bf b33c
000002f0: e767 0dbe d074 13be 7347 aabe 2fd1 1abe
00000300: c82f 6bbe a737 84be 8fd1 9d3d b3d1 b2be
00000310: ad64 86be 8e1d 863d 5701 013b 5747 063e
00000320: 927a b03c 2766 1b3d d70f 393d cee7 a6bd
00000330: 1cd6 bb3d ae97 8cba b55a fc3c b3fc 77bd
00000340: fede a03e 71bc 213e 3aac 8d3e fe80 823e
00000350: b84e 683d c988 d1bc 18af 8a3e 4e2f 3a3e
00000360: 1e95 9c3d 0fdb e9bc d8f9 e73d 7ea1 56be
00000370: f4f5 593d 722e 783e 8dc8 bdbd 39cd 40be
00000380: 0619 25be 1b17 793d b30a 263d 8e73 013e
00000390: 7ea0 4abe 48b4 a2bd ea42 b3bd 00b2 673e
000003a0: ecd4 56be 8a05 7bbe 9f66 803d 80a5 d7bd
000003b0: 0e8a a73d 6903 31be 724f 7ebe 52e5 01be
000003c0: f3f8 a33e c0c1 47be ceea 56be 9025 2dbe
000003d0: 5269 0bbe a2ac a2bd e94a da3c e3d1 78bd
000003e0: 8cdc 413e 0582 6b3e 2c0b 76bd e5b9 5cbd
000003f0: c592 99bd 59a8 253d 831a 863e 4ee2 f8bd
0.12202537 0.0071309563 0.24982457 -0.09233817 0.08246014 -0.17859998 -0.05795304 -0.08366274
0.23999864 0.07985623 0.243629 0.114009015 0.05101616 -0.10961882 -0.17681535 0.032500684
-0.08163409 0.0066742836 0.16675213 0.16700342 0.19705735 0.21645348 -0.1774254 -0.065865465
-0.079855666 -0.20181866 -0.18240586 -0.064764895 -0.004854726 0.33401605 -0.0065145446 -0.21253942
-0.18814684 -0.26038054 0.11117195 -0.23364331 0.05922321 -0.20289136 -0.14386082 0.2395125
0.03284923 -0.26345122 0.202776 0.31048006 0.098062396 0.051409326 -0.2498979 -0.25207144
0.20646483 0.06568974 0.0033903185 0.25939724 0.10812909 0.0034145822 -0.41135773 0.3059685
-0.1468992 -0.07989823 0.49541098 0.06559917 -0.13812579 0.29826593 -0.20274386 -0.069637515
0.11509866 -0.20471269 -0.068382986 0.12764369 -0.26904505 -0.13878764 0.246465 -0.34992862
-0.061718784 0.26675025 0.054047436 -0.15292428 0.22510329 -0.15336098 0.10309147 0.042086326
-0.1432949 0.3441051 0.1347813 -0.28312892 0.3529497 0.06802562 0.0060488777 0.17609696
0.13981502 -0.051817555 -0.16334414 -0.25053698 0.06722778 -0.23533255 0.06526921 -0.07316665
-0.2234624 -0.055713907 0.024166925 -0.15429416 0.11714177 0.46676108 -0.14675246 -0.1638138
0.383984 -0.21130614 -0.17331052 0.20797099 -0.33897537 -0.39042386 -0.47854608 0.070955254
0.121862285 -0.0079837395 0.43202925 0.3204262 0.36827108 0.071170524 -0.24863341 -0.33036834
-0.088727094 0.12554698 0.16134192 -0.0025381953 0.029734883 0.15594454 0.18496345 0.14838499
0.17824905 -0.01973383 -0.046761636 0.13371956 -0.16359632 -0.05523984 -0.218367 -0.31800148
-0.14172226 0.28550056 0.301208 0.25351873 -0.4158566 0.027506392 -0.12984835 0.08190266
-0.23802921 -0.06723482 0.16338576 0.28494465 0.36654517 -0.2495399 -0.018482681 -0.320965
0.1623958 -0.21393318 -0.11875599 0.33429486 0.07680253 0.26673922 -0.3425724 0.06815473
-0.052862305 -0.01608573 0.18848385 -0.28348354 0.10680886 0.2727017 -0.17985098 -0.21939324
0.15616076 0.21907938 0.07520339 0.18649195 -0.32231635 0.17147648 0.060911745 0.020966338
-0.15078253 -0.15665886 0.28919435 -0.11796154 -0.11484313 -0.032135878 -0.029931584 0.16015941
0.11759179 -0.12829699 -0.13189869 0.021941736 -0.13809167 -0.14400029 -0.33257636 -0.1511886
-0.22967446 -0.2582371 0.07705986 -0.34925613 -0.26248685 0.06548606 0.0019684636 0.13113151
0.021542821 0.037939217 0.04518112 -0.08149682 0.091716975 -0.0010726356 0.030804971 -0.060543727
0.3142013 0.15794541 0.2767046 0.25489038 0.056715697 -0.02557792 0.2708671 0.18182108
0.07645629 -0.028546838 0.11326951 -0.20960042 0.053213075 0.24236467 -0.09266768 -0.18828286
-0.16122827 0.06081305 0.040537547 0.12641737 -0.19787785 -0.07944542 -0.08752997 0.22626495
-0.20979661 -0.24513832 0.062695734 -0.105296135 0.08180629 -0.17286457 -0.24834993 -0.12685135
0.3202587 -0.19507504 -0.20988008 -0.1690886 -0.13614395 -0.07943083 0.026647048 -0.06074704
0.18931788 0.22998817 -0.060069248 -0.05388822 -0.07498697 0.040443752 0.26192102 -0.12152539

conv_layer1.bias f4 [32]
00000000: 55f0 9bbd 2122 cbbc 0f38 e8bd ca62 99bd
00000010: f151 2dbe d1ce 02bd 3c6e 98bd 052d c03d
00000020: 33cf 09bf 2cb4 0cbe 2fdb 86bd d36a 65bd
00000030: bd2a 2fbd 05f7 a33a 085c 3b3d 4713 2bbd
00000040: 781f a2be c12c 8ebd c32b c0bd fc3c 4bbd
00000050: 4c09 7dbc f043 9fbe 0602 7bbd 7eb0 51be
00000060: 6b44 65be c9b0 91bd 9c76 4ebd 4b86 aabb
00000070: f201 7dbd c33e bb39 a61a a1be 655f 8ebe
-0.07614199 -0.024796547 -0.11338817 -0.07489546 -0.1692579 -0.031935517 -0.074429005 0.09383587
-0.53831786 -0.13740605 -0.06584775 -0.05601008 -0.042765368 0.0012509531 0.045742065 -0.04176643
-0.31664634 -0.0694213 -0.09383347 -0.049618706 -0.015444111 -0.3110652 -0.061281227 -0.20477483
-0.2238938 -0.07113797 -0.050406083 -0.0052039973 -0.061769433 0.0003571418 -0.31465644 -0.27807155

conv_layer2.weight f4 [64, 32, 3, 3]
00000000: 215c 34bc 6604 963d 9f7e f83b 4472 b0bd
00000010: b412 8abd 814c 3ebe b0c7 02be ac2d 073c
00000020: 4088 373e db35 cc3d a6f3 b63d 6131 81bd
00000030: 801e 243d 7805 acbc 043d 1bbe 9fd7 6bbd
00000040: 7ec2 9fbd 2f55 b4bd f6d4 143e 5397 103e
00000050: dd2c 5b3d 84a0 0a3e 5658 653e 73d1 923d
00000060: a332 94be 8b43 76be 5478 48be 3701 ac3c
00000070: b7b6 b23c 06a8 d3bd 3dfd 98bd 3186 d9bd
00000080: 3d13 5abe c007 32be 2180 87be 9297 aebd
00000090: f48c 1dbe 561d 84bd 5d23 9fbe d96f 0ebe
000000a0: a5ea 223d 5658 023e c70d 963e a0cd 933e
000000b0: 4700 3d3e f1e0 18be 238a 43be 0b61 a7be
000000c0: dcbb 953d c159 373d 2bc7 1c3c 4b57 cfbd
000000d0: d233 ef3d eb37 0c3e 5dc5 463e 3312 26bc
000000e0: f38b c03d 6e79 8b3d 721b 27be 7787 12be
000000f0: 56db c2bd a6f0 9abe 34c6 4ebe 42a9 2bbd
00000100: 8ba1 d33d 42fc f7bc a255 abbc 5324 a9bb
00000110: 543d d1bd 0879 0bbd e8ff 26bd b248 e93c
00000120: a643 26be fcf1 21be ae4d ddbd e2bf 21bd
00000130: 56f0 2fbe 4dfd 2cbe ca01 aebe 9a86 91bd
00000140: d79d 7dbe 51a8 00bd d66a 933d 3646 f93c
00000150: 024a c73d caa0 c53d 6dcc 8bbd 6ca5 a0bd
00000160: 9bf2 a8bd c43b 573c b9a1 303e d5d8 173e
00000170: 7227 d33d d127 bd3d ea8d 083d a0f3 9d3b
00000180: 1001 893d 9e87 54bd 73f0 ac3d ae22 be3d
00000190: cec9 883c 2baf afbb b561 1b3e aa38 163e
000001a0: 0331 04bc e981 2d3e 0418 b73c ba91 21be
000001b0: 4f10 603e e653 b23e 092c b73d 26ff cf3d
000001c0: 1f6b f3bc dd4c 1ebe e17c 8bbe 47ea 03bf
000001d0: c95b 1dbf d426 60bc b247 b3bd 972d cabd
000001e0: 76a6 1fbe f9c2 a9bc 895d aabd b569 fabb
000001f0: 90e9 773c 39b1 593d 52f8 9dbc 469d b5bd
00000200: 5365 50be 3483 44bd 9967 173d 4421 263d
00000210: f81a 623e a02a db3d 8e84 1bbd 6e65 583e
00000220: 9a53 4e3e df0d 0c3e 053e 85bc c452 09bd
00000230: ee09 f93c 6c93 38be 289d 1ebe d4ef 33be
00000240: 984b 6d3d 2f43 b23d 2994 7b3d 7fe3 c63b
00000250: e5b4 cfbc 4776 253d a3e0 35be a5dd a13d
00000260: c042 803e 9236 843e 752a 16bd 0b44 163e
00000270: a68a 0d3e 2814 e5bd 9f9f 09bd ff3d 90be
00000280: d6ee 78be ae9e 573c 59cb c33d a3a4 09bd
00000290: ef59 e73c df7d 133e de50 b7bc 094d b63d
000002a0: 81ae 05bf f67f d9be 1f37 43be 1977 1a3e
000002b0: a52c 1c3e 2128 253e 3a5d 5c3e 3017 d83d
000002c0: 8dd4 9b3d e08c 65be 3793 dcbe 496d 92be
000002d0: 1c7b f93c 30bb c9bd f272 10be 1e1d 7bbd
000002e0: e7bf d23c 78b3 c43d bec5 253e 54b1 163e
000002f0: 1ea5 2a3c 6771 ac3d e798 153d b8ce 513b
00000300: d298 37bd f51e babd 2738 89bc 4eb6 c7bb
00000310: c828 73bd fff6 f53d 6751 523e 2519 773d
00000320: 37ae 373c 4fde 99bb 69cf 1ebd 430c 353e
00000330: da1a 84be 297f d4bd e2da 6dbd 61e3 db3d
00000340: 8139 41bd 0298 14be 990e 843d ef63 23be
00000350: c065 febd c1e1 67be b6b2 233d 85cc 703d
00000360: f0d8 bc3e 8e67 9c3e 97a0 c73e 2205 5e3c
00000370: 0d1d 0b3d f47d 3fbb 3530 5ebd d5b4 f2bc
00000380: f62e a9bd ba4c 6c3d 8a9c e83d f62b 853e
00000390: 3ea1 ecb8 4602 04bd b540 283d 3fa9 23be
000003a0: 97ff 52be 04f4 21be e055 0dbe c542 7ebe
000003b0: 6770 07be 1775 c5bd 31db 12bd 78d2 fc3c
000003c0: 1dae 663e 8cd2 9d3d 05d1 8b3d dec9 803e
000003d0: 30b0 3c3e 0989 55bc 7ec4 4d3e 1668 57bb
000003e0: efb5 b83d 5df4 053c bace 043e f89a 323e
000003f0: 0e17 f13a 0135 cb3c ea9b 893d 967b f33d
-0.011008293 0.07325058 0.007583454 -0.086155444 -0.067418486 -0.18583871 -0.12771487 0.008250635
0.17923069 0.099712096 0.08933191 -0.063082464 0.04006815 -0.020998701 -0.15159994 -0.05757868
-0.07800768 -0.0880531 0.14534363 0.14120226 0.05350958 0.13537794 0.22396979 0.071688555
-0.28944883 -0.24049203 -0.19577152 0.020996673 0.02181564 -0.10334782 -0.07470176 -0.10621298
-0.21296401 -0.17385769 -0.26464942 -0.085250035 -0.153858 -0.06450908 -0.31081668 -0.13909854
0.039774556 0.1272901 0.29307386 0.28867817 0.18457137 -0.14929558 -0.19095664 -0.32691225
0.07311222 0.04476333 0.00956897 -0.10124072 0.11679806 0.13693206 0.19411226 -0.010136175
0.09401693 0.0681027 -0.16319063 -0.14309488 -0.09514491 -0.30261725 -0.20192796 -0.041909464
0.10333546 -0.030271653 -0.020914856 -0.005161801 -0.102167755 -0.03405097 -0.040771395 0.028477047
-0.16236743 -0.15814966 -0.10805832 -0.039489634 -0.17181525 -0.16893502 -0.3398574 -0.07105751
-0.24767242 -0.03141052 0.07198112 0.030428987 0.09730913 0.09649809 -0.068261005 -0.07844052
-0.08249398 0.013136808 0.17249192 0.14828809 0.10310258 0.0923611 0.033338465 0.004820302
0.06689656 -0.051887147 0.084442995 0.092839584 0.01669779 -0.005361458 0.15173991 0.14670053
-0.008068326 0.16944088 0.022350319 -0.15778247 0.21881221 0.34829634 0.08943946 0.101560876
-0.029714165 -0.15459009 -0.27243713 -0.51529354 -0.6146818 -0.013681132 -0.08753909 -0.09871977
-0.15590844 -0.020722853 -0.08318622 -0.007641996 0.015131369 0.05314753 -0.019283447 -0.08867888
-0.20351152 -0.047976688 0.036964033 0.04055907 0.220806 0.107014894 -0.03796821 0.21132442
0.20149079 0.13677166 -0.016264925 -0.033526197 0.030400243 -0.18024987 -0.15489638 -0.17571956
0.05793342 0.087042205 0.061420593 0.0060696 -0.025354812 0.040396 -0.17761473 0.079036035
0.25050926 0.25822884 -0.036661584 0.14674394 0.13822421 -0.11185485 -0.033599492 -0.281723
-0.24309859 0.013160391 0.0956027 -0.033604275 0.028241126 0.14403485 -0.022377428 0.08901412
-0.52219397 -0.4248044 -0.19063996 0.15084495 0.15251406 0.16128589 0.21519938 0.10551298
0.076089 -0.22417021 -0.43081066 -0.28599003 0.030454211 -0.09850156 -0.14106348 -0.061307065
0.025726272 0.096045434 0.16188714 0.14716083 0.010415344 0.08420067 0.036522772 0.0032014083
-0.044823475 -0.09087936 -0.016750408 -0.0060947305 -0.059365064 0.120100014 0.20538865 0.060326714
0.01121097 -0.0046956907 -0.03877202 0.17680459 -0.25801736 -0.103758164 -0.05807007 0.107367285
-0.04717398 -0.14511111 0.06448097 -0.1595609 -0.12421751 -0.22644712 0.039965354 0.058788795
0.3688426 0.30547756 0.38989708 0.013551028 0.03396325 -0.002921936 -0.054245193 -0.029627243
-0.0826091 0.05769036 0.113579825 0.26010102 -0.000112833906 -0.03222873 0.041077334 -0.15982531
-0.20605312 -0.15815741 -0.1380229 -0.24830158 -0.13226472 -0.09641474 -0.03585357 0.030862078
0.22527356 0.07706174 0.06826977 0.25154012 0.18426585 -0.01303316 0.20094487 -0.0032868437
0.09019076 0.0081759365 0.12969485 0.17441928 0.0018393712 0.024805548 0.06719191 0.118888065

conv_layer2.bias f4 [64]
00000000: 71ed bdbd c9e1 ef3e d6f7 77bd 720d 03be
00000010: 933e 91bd 2378 093d f469 5abd e42b 0b3d
00000020: 021b 80bd f529 c13d b2c6 423d aee2 22bd
00000030: 0806 a13b bead c7bc af17 0f3d 8976 64be
00000040: f8c9 573e 66d3 f1bd e768 8d3e 71d0 653c
00000050: 95b8 b33d 98eb 46be 2f5f 613e e9e8 b93e
00000060: 7656 40ba 70d2 b3bd 9ee7 45bd 988c fdbd
00000070: f6d1 213e f1b6 193e 702f 8b3b 129d d6bd
00000080: be9d b3bd 5bc6 6cbe c1e3 cc3c 9241 94bd
00000090: 8b73 3a3d 3579 053e 83ba f73d 0056 2bbd
000000a0: a0eb 27bc bf1e 89bd 6d84 f03d 4f3b 5ebe
000000b0: adfd 07be 6373 453c a379 f6bd 2dec c73d
000000c0: 6242 b43e 5921 bbbd ee12 c83c 4487 b33e
000000d0: 60fe 9bbd 2ff9 f83d 96a2 503e 83e7 c0bd
000000e0: 6ad8 d33d 6c44 083e bf5e 88bc da28 59bd
000000f0: 954a d13d 46ab 3c3e 33d3 b8bc a2ee 59be
-0.09273804 0.46851948 -0.06053909 -0.12798098 -0.07092013 0.033561837 -0.0533237 0.033977404
-0.06255151 0.09431831 0.047552772 -0.03976696 0.004914049 -0.024374839 0.034934696 -0.22310843
0.21073139 -0.11807899 0.27619097 0.014026747 0.087754406 -0.1942581 0.22008966 0.3631051
-0.00073371024 -0.08780372 -0.04831659 -0.12380332 0.1580275 0.15011193 0.0042475984 -0.104791775
-0.08770321 -0.23122542 0.025010945 -0.07239069 0.045520347 0.13034518 0.12096121 -0.041830063
-0.0102490485 -0.066953175 0.11744008 -0.21702312 -0.13280363 0.012051436 -0.12034919 0.09761844
0.35206896 -0.0913722 0.024423089 0.35064137 -0.076168776 0.12156903 0.20374522 -0.09419157
0.10344012 0.13307351 -0.016646741 -0.053017475 0.102193035 0.1842471 -0.022561645 -0.21282437

conv_layer3.weight f4 [64, 64, 3, 3]
00000000: 727a 823e aef2 2a3e 1a10 403e 8cea 10be
00000010: 088c 93bd 308f e8bd 5743 01be b759 77bd
00000020: 6e63 213e eb5b a8be 0e79 f8be 4b84 6dbe
00000030: f4e8 2cbe bfc7 9e3d 28fc c23d e6d8 2ebe
00000040: 8a06 31be 48ab 58be b6b6 4b3c 2f09 ea3c
00000050: ceba ab3c 8a59 96bc 4d53 edbc 7420 173c
00000060: 2406 563c 27ce 8c3b db06 b33c 3277 493d
00000070: c849 423d ef4e aa3e 962a 873d 0cb1 d5bc
00000080: 115f d7bd d7c5 39be d78e 523d ef5e 81be
00000090: b839 b9bc 49b6 cf3c 6793 28bc 09c0 023b
000000a0: fdb1 253c 5c7d fc3b 0a38 9a3d b1a0 e23c
000000b0: ba2f 7d3c 8d7d 9cbc 4c5c 91bd d57a a6be
000000c0: 9e8e 803d 037a c9bd ad72 f7bd ac20 eebb
000000d0: 9b89 0dbe 071c 6c3c 4744 893e 04b2 303e
000000e0: a7d1 0c3e bc29 29be 05ef d03b 5980 95bc
000000f0: 28bc f8bd f07b 34bd 2f71 03bd 2d72 80bd
00000100: ab1c a9be 9713 82be e9d1 bc3d 8b45 2c3d
00000110: 1ec5 d33d b9d0 62bd 6974 f03d 5dd0 303e
00000120: 1570 f2bc 77ed 48be 2dac fd3c b3c9 49be
00000130: af4a 093e f05d 113e 66db 97bd 2103 a63d
00000140: c4b2 673e f14e 223c 9857 67be e453 023e
00000150: 683e 90be ec5b 51be f47b cbbd db12 e1bd
00000160: b2b4 62bd 6f5a 43be d984 7abd 4cbc babe
00000170: 93ec 7bbe 1bf3 c73d 8bd2 d93d 16e0 14be
00000180: 213e a23d 2025 02bc b408 543e 16cf 59bc
00000190: dbb6 48bc 04e9 993b 0acd edbc 4c2b f0bc
000001a0: ecc0 c9bc d65d 453c 64ed 1dbd 4103 4cbd
000001b0: e630 293d cdc8 ed3d bd2f 16be f32a 953e
000001c0: e001 65bd 9ee2 58be 1015 aebe d73f 93be
000001d0: f185 18be 25e6 5abe f98a 253d 59d5 0dbe
000001e0: 7121 f33c f075 293e 97c3 323d bbb3 cc3e
000001f0: a5e2 a93e 32d4 453e 6e8a 8a3c 3d97 a7bd
00000200: 1a17 f3bd aaca 1abd cefc c13c c982 913d
00000210: d234 be3d bc8d 02be 5f1d 623e 9e71 543d
00000220: 399d de3d 9d65 b5bd fa35 0f3e eb6b f13d
00000230: 7085 ae3e 5efa e13d 7b9b 6bbe 9cf6 2d3e
00000240: e3ae a5bd eb5f 053e 7770 883e 891d 2fbe
00000250: cb70 693e 8ae1 ffbc fc2c 7bbe 48f1 36be
00000260: d1a5 ffbe 4343 11be e263 dfbc 9ad5 69be
00000270: 118a a1bc 8382 f2bd c309 8e3d 1bc7 bdbd
00000280: a56d 49be b0c5 3fbe e4d3 84be cfb9 21be
00000290: 65e1 10be edaa 99bd c504 e2bd 149d 493d
000002a0: 6b6b 08bd 0bb2 68bd 0a28 87be a56f adbd
000002b0: 3b3e 81be 6797 15be 05f1 d73c 2146 84be
000002c0: 70bb f13d c15a cc3d 32ee 033d e304 533d
000002d0: 3c8d 043d e47f 50be d23d 943e 658c 62be
000002e0: 429f ec3d c62a bfbc 28a5 7c3e 50eb 34bc
000002f0: 7ebc 4a3e b378 c23c 3ffd 943b 8e4b 83bd
00000300: caa9 09bd f2f3 cbbd ebb6 50bd beff 6cbc
00000310: 2ac1 13be 9a4f 06be 021c 043e cf28 013e
00000320: 443d 903e 65db a3be 1eb9 a1bd 2f68 02be
00000330: dd90 6f3e a073 e53d 1df5 ca3e e147 fabe
00000340: 6c2d b9be c514 81be 5adb 7cbd dec5 2bbc
00000350: d4a9 32be 4ed9 6ebc ec34 81be 692b 98be
00000360: 5022 43bd ed79 08bf 64f8 753c 0bc4 8f3e
00000370: a869 bdbd 0fd4 4ebe ec8b c33e 0ec6 923e
00000380: 7e3b dc3e a339 bfba caeb aebc 9ff4 d2be
00000390: 7376 873e 8388 463e 93cc af3c 4955 cf3e
000003a0: 8b52 3e3e 0f0a 45bc c7d5 5ebc a577 f3bd
000003b0: 1bbf 73bd 2170 243c c8c6 efbd 2f4f 673e
000003c0: c2f3 3dbe 30a4 a0be f37d 51be 4ebd 95bb
000003d0: a712 7f3d 27c6 323e a3f3 423d 2db9 a13d
000003e0: 3b20 323e d3ec b33c af7c ca3d 8805 e4bb
000003f0: a98d 48be d064 26be 1693 533d 9283 5d3d
0.25484043 0.16694137 0.18756142 -0.14151973 -0.07204443 -0.11355436 -0.12623344 -0.060388293
0.15760586 -0.32882628 -0.48529857 -0.23194997 -0.1688574 0.07752942 0.09520751 -0.17074928
-0.1728765 -0.21159089 0.012433698 0.028568832 0.020963099 -0.018353242 -0.028970385 0.009224046
0.0130629875 0.004297036 0.021853855 0.04918594 0.047433645 0.33263347 0.065999195 -0.0260854
-0.10516179 -0.18141876 0.051405754 -0.2526774 -0.02261053 0.025355475 -0.01028905 0.0019950888
0.0101132365 0.0077053737 0.0753022 0.027664514 0.015453273 -0.019102836 -0.07097682 -0.32515588
0.06277202 -0.09837725 -0.120824195 -0.0072670784 -0.13822024 0.014410979 0.26809904 0.17255408
0.13751851 -0.16519827 0.0063761496 -0.018249677 -0.12145263 -0.04406351 -0.032090362 -0.06271777
-0.33029684 -0.2540557 0.09219725 0.04205851 0.103403315 -0.055374835 0.117409535 0.17266984
-0.02959446 -0.19621836 0.030965889 -0.19705848 0.13407396 0.1419599 -0.07414894 0.081060655
0.22626787 0.009906516 -0.22592008 0.12727314 -0.28172612 -0.20445222 -0.099357516 -0.109899245
-0.055348106 -0.19077466 -0.06116185 -0.36471784 -0.24601965 0.097631656 0.10635861 -0.14538607
0.079220064 -0.007943422 0.20706445 -0.013294002 -0.012250627 0.004696967 -0.029028434 -0.02931752
-0.024628125 0.012046298 -0.03855647 -0.04980779 0.0413064 0.11610565 -0.14666648 0.2913433
-0.05590999 -0.21180198 -0.34000444 -0.28759643 -0.14894845 -0.21376856 0.040415738 -0.13850917
0.029679032 0.16548896 0.04364356 0.39980873 0.3318073 0.19319227 0.016911712 -0.08183143
-0.11869641 -0.03779093 0.023680117 0.071050234 0.092874184 -0.1274938 0.22081517 0.051866166
0.108698316 -0.08857272 0.13985434 0.11788162 0.3408618 0.11034082 -0.2300853 0.16988605
-0.080899976 0.13024871 0.26648304 -0.1710111 0.22796933 -0.031235475 -0.24528879 -0.17865479
-0.49931195 -0.14185815 -0.027269308 -0.22835389 -0.019719156 -0.118412994 0.06935456 -0.09266492
-0.19670732 -0.18727756 -0.2594291 -0.15793537 -0.14148481 -0.07503305 -0.11036066 0.049222067
-0.033305567 -0.05681042 -0.26397735 -0.0846856 -0.2524279 -0.14608537 0.026360044 -0.25834754
0.11803329 0.099782474 0.032209583 0.051518332 0.032361254 -0.20361286 0.28953415 -0.22123869
0.115538135 -0.023335826 0.24672377 -0.011042431 0.19798467 0.023739194 0.004546791 -0.06410895
-0.03360919 -0.09958638 -0.050955694 -0.014465271 -0.14429155 -0.13116303 0.12901309 0.12613223
0.28171742 -0.32003322 -0.078966364 -0.12735055 0.23395105 0.11203694 0.39640132 -0.48882964
-0.36167467 -0.25211158 -0.061732627 -0.010484187 -0.17447597 -0.014578177 -0.2523569 -0.2972062
-0.047640145 -0.53311044 0.015012834 0.28079256 -0.09248668 -0.20198081 0.3819269 0.2866673
0.4301414 -0.0014589321 -0.021352667 -0.41202256 0.26457557 0.19388013 0.021459853 0.40494755
0.18586175 -0.012026324 -0.013600773 -0.11888055 -0.059508424 0.010036499 -0.117078364 0.225888
-0.18550017 -0.31375265 -0.20458202 -0.004569686 0.062273648 0.17458402 0.04759563 0.078966476
0.17395107 0.021963513 0.09887063 -0.006958667 -0.19585289 -0.16249394 0.051653944 0.054080553

conv_layer3.bias f4 [64]
00000000: 04f7 c5be 54f3 8c3e 1b09 04bd 4ebf 3d3e
00000010: c303 81bb aed0 56bd 5489 65bb 827c a3bd
00000020: 9572 d03d a336 50be b33f b1bc 0445 08be
00000030: d28f 1ebd 211d a9bd 3667 30bd 98c9 f4bd
00000040: 717f 36bd bd7e f3bd 8fba 2a3e 9399 d23b
00000050: 62d0 fdbc 6482 22bd ac1d 823e 06a1 49bd
00000060: 0cce 80bd 6348 a83e 5055 13bd 3d32 3ebd
00000070: 43ad 8ebd cb4a 3f3e ab5d 27bd 7fc6 9a3b
00000080: 35f5 7d3e bea0 04bd 76ec 66bd 42ac cabd
00000090: fb21 1bbe e5b9 61bd 0066 00bd ce8c 0fbd
000000a0: 9dc9 973d d620 88bc 721e 193e b303 6c3b
000000b0: 976e 99bd 18d1 943e d78f 8f3e cb2d 8f3e
000000c0: ab79 913d f78c e83d 1f8d 583e de10 893e
000000d0: 7cb2 46bd 0395 a13e 73fc 4cbc 4c1b a3bc
000000e0: 8959 24bd 2a60 6d3c f918 88bc e1b0 d6ba
000000f0: 8b53 153e acc7 ed3d 160e d039 4100 c8bc
-0.3866502 0.27529395 -0.032235246 0.18530008 -0.003937216 -0.052445106 -0.003502448 -0.07982732
0.10178105 -0.20333342 -0.02163682 -0.13307577 -0.038711376 -0.08257509 -0.04306718 -0.119525135
-0.04455513 -0.11889408 0.16672729 0.006426999 -0.030983154 -0.03967513 0.25413263 -0.04922583
-0.062893 0.32867727 -0.035970032 -0.04643463 -0.06966641 0.18680875 -0.040860813 0.0047233696
0.2480057 -0.03237986 -0.05637785 -0.09896137 -0.15149681 -0.055108923 -0.031347275 -0.03504639
0.074115016 -0.01661722 0.1495302 0.0036012947 -0.074917965 0.29065776 0.2803943 0.27964625
0.071032844 0.11355012 0.21147583 0.2677068 -0.04851006 0.31559 -0.01251136 -0.019910477
-0.04012445 0.014488259 -0.01661347 -0.0016379618 0.1458265 0.1161035 0.00039683346 -0.024414184

fc1.weight f4 [64, 1024]
00000000: 4b6d 16bd 6cbd 943d 4cda 913d 2900 b23d
00000010: 662b 01bb 9527 d03c 4679 dc3d dc07 1abe
00000020: 8149 523d 45e2 c3bc 1819 543e a208 103e
00000030: 7afa 193d 2604 973d 310f 743e 6630 d1bc
00000040: 5a9a 8cbe ab35 6fbe e3b8 5bbe 73a5 31be
00000050: 7ac9 dbbc 6a88 ab3e fd87 c9bd 4641 37be
00000060: 7caa 0a3f c913 a63c 5125 7d3e b1e9 903e
00000070: ec3a 96bd e6f1 aa3d 4307 e6bd 0bcb ad3d
00000080: 95b0 9f3c 0b39 2ebc 96f5 9f3c a259 2abd
00000090: 2bb2 8f3c 0c00 153a 4db2 a53c b768 3639
000000a0: 717d d7bc 84dd 6e3b 18b8 a83c 58e0 f13c
000000b0: 785c 3e3c e5c6 8dbc 9f7d dcbc c3e3 223c
000000c0: 1c1e 0c3e 7011 053e da03 203d 047f e33d
000000d0: 90d4 e33d eb0b 9dbc eae2 073d 1a23 a23d
000000e0: f305 8cbc 2ff4 22be d208 07be e8f0 303e
000000f0: 53e8 6dbe 4cd9 5dbe 3ce2 a7bd ec63 88bd
00000100: a5d9 d8bb bf3d fe3c f690 3cba 21d0 fd3c
00000110: 0142 533d 169b 8f3c 372f 4abc f995 023b
00000120: c5ca 173b 0aee f2bc 9d14 a6bc 2547 d73c
00000130: 6dab f43b c6db 233d 5561 d73c 5b4c 6fbc
00000140: f090 303c d0d5 a83c b03e 91bc aa80 f23c
00000150: 5afa 943c 5851 9b3b 81c4 153b 80e8 24bb
00000160: d0ed cc3c f073 ce3c 98b9 e9bb d04c 3b3c
00000170: c0cd b0bc 2bd8 493d 6aa4 b5bc 5078 ebbc
00000180: 4f8c 03bc 852b 97bc e29c 403c 8e75 15bc
00000190: 4e8c b7bb 8eef d6bc b660 823c e131 8d3c
000001a0: 2e04 25bc 7172 8c3a f928 713c 83c9 10bd
000001b0: 0822 4a3d 2d1c 5b3d 211c 1a3d 7fb0 bdbc
000001c0: e029 803d bc59 373d e8e7 c13d 96a0 913d
000001d0: ef94 98ba 02ac 48bb 83ad ddbc 07f3 543d
000001e0: 0df1 823a ff48 08bd 42f6 c63b 531c b53c
000001f0: 80ec 95bc 39ab ba38 f95d c03d 1a11 cd3d
00000200: d374 cf3b 1dca f53d 0e10 79bd 895e 263e
00000210: bfc8 383b 6872 4c3c fd4d ed3d 2fa5 bb3d
00000220: 1991 81bc f7c0 003e c321 343e 3561 11be
00000230: 4a27 813b 0dd3 dd3d 5312 2e3e 2b16 81be
00000240: ff0a 25be 03f0 213e 56ed 98bd 56a2 b13d
00000250: 5a0f e3bd 1f6c 69bc 8d67 043e 008f 04bd
00000260: b0c7 83be d097 2d3e 9c63 99bd 27d7 a9bd
00000270: 331c 223d ef63 87bb f347 fdbd 4e09 ffbd
00000280: 4fa2 6c3c dec3 b4bc 30bb 6cbc 9fa0 ffbc
00000290: 12a8 773c d8e5 003d 3a80 61bc 146a cb3b
000002a0: d622 b5bc b0ec 173d 5193 cd3a 4e62 273b
000002b0: fa4b 57bb 6384 933b 3ead 8bbb 16a2 f1bc
000002c0: f452 013d 716b 7f3e c2bb 133d 3d76 bdbe
000002d0: 5f2c a43d cc13 523d 31cd 483e 1104 e43d
000002e0: 84ed a6bb b03b 23bd dd6b 7f3e d565 623e
000002f0: 0c1e afbe a0eb 0fbc 7a92 ca3d 1a33 373d
00000300: cba8 133e 0c7c 533e e6c0 e53b 39f2 af3e
00000310: 0e97 643e 7f27 02be 1d83 90be 5416 c7bc
00000320: 5b4a 673e 7ec8 c73d d551 06be 1dc1 36bd
00000330: 833e 2c3e 93a7 0f3e f9bf f5bd 2cc8 dabd
00000340: 2656 b2bd 3bdf 14bd 9a6c 97bc 3a89 5e3c
00000350: 8325 383d a00d 24bc 3d8f 043d f02c 043d
00000360: f6d9 85bc 9314 223d a797 063d c570 e2bc
00000370: 5d63 f23c 1db3 6fbc 14ab d6bc c254 123c
00000380: b40d 603d 8268 6c3d 7319 76ba 02b5 ef3c
00000390: 6801 213d 09fc 1b3d b327 973c 841e b5bc
000003a0: e4d8 933c f86e 0bbc 1a3d b8bc 04d9 0c3c
000003b0: 757c b93c b0a1 043d d80d fd3c e4d6 8ebc
000003c0: 45f4 15be e0ce 3cbd 4837 a2be 529d c3be
000003d0: 4b8f 2cbe ef46 e03c 4201 67be bcfe 06be
000003e0: d0c8 243e 57be 913d 7ccf 13be 0c3b 2cbe
000003f0: 1c37 9f3d a5fe 64bc 235c 9cbe c5e6 37be
-0.036725324 0.07262692 0.07121715 0.08691437 -0.0019709705 0.0254095 0.107653186 -0.1504206
0.05133963 -0.023911605 0.20712698 0.14065793 0.03759239 0.07373838 0.2383392 -0.025535773
-0.2746151 -0.23360316 -0.21457247 -0.1734827 -0.02682947 0.33502513 -0.09840391 -0.17895994
0.5416639 0.020273106 0.24721266 0.28303292 -0.07335457 0.0834692 -0.11231854 0.08485993
0.01949338 -0.010633717 0.019526284 -0.041589387 0.017541012 0.0005683906 0.020226622 0.00017395882
-0.026304932 0.0036447952 0.020595595 0.02952592 0.011618726 -0.017306754 -0.02691537 0.009941998
0.13683361 0.12994933 0.039066173 0.11108211 0.111245275 -0.019170722 0.033175386 0.07916851
-0.01709268 -0.15913461 -0.13186958 0.17279398 -0.23233156 -0.21664923 -0.08197448 -0.066596836
-0.006617742 0.031035302 -0.0007193232 0.030983033 0.051576618 0.017530005 -0.012340358 0.0019925816
0.0023161632 -0.029654521 -0.020273501 0.026279042 0.0074667246 0.040004514 0.026291529 -0.014605607
0.010776743 0.020609766 -0.017730087 0.029602367 0.018185783 0.0047399215 0.002285272 -0.0025162995
0.025015742 0.025201768 -0.00713272 0.011431888 -0.021582484 0.04927842 -0.022173125 -0.028743893
-0.008029058 -0.018453369 0.011756154 -0.0091222655 -0.0056014424 -0.026237275 0.015915256 0.017235698
-0.010071797 0.0010715259 0.014719241 -0.035348427 0.04934886 0.053493667 0.037624482 -0.023155449
0.06257987 0.04476331 0.09468061 0.071107075 -0.0011641065 -0.0030620103 -0.027060276 0.05198958
0.0009990052 -0.03327274 0.0060718367 0.022108233 -0.018301249 8.901064e-05 0.09392924 0.100130275
0.006331065 0.12001441 -0.060806327 0.16247 0.0028195826 0.012478448 0.11587141 0.09162366
-0.015816258 0.1257361 0.17591004 -0.14197238 0.003941451 0.1083127 0.16999178 -0.25212225
-0.16117476 0.15814213 -0.07467143 0.08673541 -0.110869125 -0.0142469695 0.12930126 -0.032362938
-0.25738287 0.16952443 -0.07489702 -0.0829299 0.039577674 -0.004131786 -0.12367239 -0.124529466
0.014442994 -0.022066053 -0.014448926 -0.03120452 0.015115755 0.031469196 -0.013763482 0.006207714
-0.022111338 0.037090957 0.0015684162 0.0025540772 -0.0032851682 0.0045018657 -0.0042625954 -0.029496234
0.03157325 0.2494333 0.03606773 -0.3700427 0.080162756 0.05128841 0.19609524 0.11133588
-0.005094232 -0.039851844 0.2494349 0.22109158 -0.3420261 -0.008784205 0.098912194 0.04472647
0.14419858 0.20652789 0.0070115207 0.3436449 0.22323248 -0.12710379 -0.28225031 -0.024302639
0.22586958 0.09755038 -0.13117154 -0.04461776 0.16820721 0.14028768 -0.119995065 -0.10682711
-0.08707838 -0.0363457 -0.018484402 0.013582522 0.04495765 -0.010013014 0.032363165 0.03226942
-0.016339283 0.039570402 0.03285947 -0.027641663 0.029588396 -0.014630106 -0.026204623 0.008931341
0.05470057 0.057716854 -0.00093879475 0.029261116 0.03930798 0.038082156 0.018451547 -0.022109278
0.018047757 -0.008510344 -0.022490073 0.008596662 0.022642354 0.03238076 0.03089039 -0.017436452
-0.14643963 -0.04609573 -0.316828 -0.38205963 -0.16851537 0.027377574 -0.22559074 -0.13183111
0.16092229 0.071163826 -0.14434618 -0.168194 0.07774183 -0.013976728 -0.30539045 -0.17959125

fc1.bias f4 [64]
00000000: 177d f13d 35d9 cbbb ace0 19be d718 453e
00000010: 9dc6 633c dd68 1c3e 5845 20bd 9563 193d
00000020: d824 f5bc e80a 2c3e e752 a3bc a730 15bd
00000030: d4ff a8bc 6c80 d93b 516a 0d3e 2405 683e
00000040: 5438 ccbb a25c 16bd 723e aebb 17e2 423d
00000050: 772b 593c b1c5 073c d2d5 133e 25d1 39bd
00000060: e154 293c 3d26 13bd 6e78 d03c 6885 d0bc
00000070: 7287 f03d 269c c33d 7ba9 d5bd e075 00bd
00000080: b6bf fabd 74bc f33d aa72 78bd c6a5 483e
00000090: 8577 febc 337e 86bb 16e5 03bd 3e31 df3e
000000a0: dd8e 4ebc 27a2 3abe fa46 5e3e 798d 6f3e
000000b0: cb96 d13d 69ca 74bd fcb9 a73c 86a3 ffbc
000000c0: 1320 6e3b 7ed3 923e 0dc5 72bd fd03 62bd
000000d0: 32a5 c8bd 6e7e b43d 328a 04bd c6a1 55bc
000000e0: f84d 6ebc e59b 2abd 19c4 743d b1b4 a8bd
000000f0: 9346 13bd 8b65 313e 34f0 933e 2884 cf3e
0.11791437 -0.0062209615 -0.15027112 0.19247757 0.013902334 0.15274377 -0.03912863 0.037448484
-0.029924795 0.16801035 -0.019936992 -0.03642335 -0.0206298 0.0066376235 0.13810088 0.22658211
-0.006232301 -0.036709435 -0.0053175027 0.047578897 0.013254992 0.008286879 0.14437035 -0.04536547
0.010335178 -0.03592514 0.02544805 -0.025454238 0.11744584 0.09551267 -0.104327165 -0.031362414
-0.12243597 0.11901179 -0.060656227 0.19594488 -0.03106285 -0.0041043996 -0.032200895 0.43592256
-0.012607303 -0.18225919 0.21706763 0.23393811 0.102338396 -0.059763346 0.020474426 -0.031205904
0.0036335036 0.2867698 -0.059269954 -0.055179585 -0.097971335 0.08813177 -0.032358356 -0.013039058
-0.014544956 -0.04165258 0.059757326 -0.08237589 -0.035955977 0.17323892 0.28894198 0.40530515

fc2.weight f4 [10, 64]
00000000: 1e77 d63d 5bba 9d3e 2e4a 37bd 20c4 efbd
00000010: b96b 113d bb72 3a3d a215 aa3d 03e3 003c
00000020: 0922 553d 349e 99be f22a 2cbe 87a6 c5bc
00000030: 822b a6bd 1f5b ad3d c8e0 ba3c acd5 de3d
00000040: 9ffb 96bd 7de8 fd3c 37df eabb 422c 803e
00000050: ed6d 783c 539b a53d 4121 e73d aeab 0fbe
00000060: 57ff b7bd ad3f 433d 259f f5bc 79d4 463d
00000070: cc07 c03e 73d3 f03d 846d 093d b3e4 52bd
00000080: 41ee 2d3e aaf1 973e 3ec9 49bd 7b3a 34be
00000090: b5c0 913c 5d71 aa3d 3376 323e 52e1 f3bd
000000a0: 38a6 ae3d 892a 8dbd 4131 bdbe 7ce1 fcbd
000000b0: ce55 a5bd 5801 b13c db9a 9a3d 40bf 33bd
000000c0: 676e a23d f830 e2bb f4e9 463d 4552 dd3d
000000d0: 378a 51bd ddb5 df3d 3d5a dfbd 21d1 8c3d
000000e0: 4d1b ccbc 9fa6 3dbe bc76 20bf 33dd 653b
000000f0: 4732 c4ba 8285 3fbe 8bbc d43d 0100 d63c
00000100: 62d3 dd3d 036a 32be 215e 7c3e faf1 033f
00000110: 060e ef3d a7d6 a0be cf11 86bd e135 153c
00000120: ed05 e0bd e423 04bd 6dfe b3be dca5 6dbd
00000130: d93d 4ebb 1514 8ebd 2785 3e3e 5c00 0cbf
00000140: a37f fe3c 481e d4bd e7ba dd3d 1d6e 903d
00000150: 000f 13bd 3af8 89bc 0b68 c9be 9327 183d
00000160: 07af 5b3e 1cee 333b d281 a3bd 3e24 b53d
00000170: 6806 9abe 2579 42be e174 6f3d cdfe 3b3d
00000180: 3870 4b3e 860a bcbe 042a 3cbb fc29 19bf
00000190: da77 ebbd 49d9 2fbd 74cb 503e 507c 55be
000001a0: eaca 633d 9b05 c83e f6a8 fcbd dc3a e3be
000001b0: 8afe 413d 2aaa 923d 57f0 e1bd 8e7d fc3c
000001c0: 7396 553c 980f 9c3d cc85 68bd e468 363d
000001d0: 4205 943a 1d58 dbbe 0a99 053d 3289 843d
000001e0: e32e 39bd 5142 4cbe 5101 283e 6ddd e4bd
000001f0: a69e e63c 386c bdbe 4dac fabe 821c 05be
00000200: 2f10 573e 9214 403e 4f16 4a3e 2c0a cbbe
00000210: e0be c43d 8ec3 6cbe 9ef3 55bd d5f8 2bbe
00000220: 5269 c8bd 36cd a0bd d401 b13e e1c8 34bd
00000230: 3c0d eebd 8741 a63d 5836 9fbe b777 4cbe
00000240: bd94 713d 6bc6 51bd 5658 5bbd d866 96be
00000250: 513d 01bd 04ed 943d 8271 823e f98e 57bc
00000260: bc49 4fbe 2f36 9b3d d1f5 343e 8df2 18bd
00000270: 1f06 6abd 6f61 b63c c6d6 003e 8d91 8a3d
00000280: b440 11bd 5db0 4e3d 5b49 29bd 9067 283e
00000290: 8d44 efbd f625 abbd d36c 02be 303c 57be
000002a0: 6db9 613b 2a34 f9bd 9058 8fbe ba54 d8bd
000002b0: 8197 9f3d 3b1a f4bc efc3 1dbd bf92 aa3b
000002c0: a809 de3d 583d 0a3e 8fc9 253d 5d8a a33d
000002d0: ccf8 043e 16d9 6dbe 8276 9bbd 9fb2 40be
000002e0: ae33 28bd a418 8e3c d63e aa3c 0b5f 86bd
000002f0: f712 333d cac4 d13e d342 c6be 2744 6dbe
00000300: a29b aebe 4513 c0bd 7f91 ccbc 7937 a53d
00000310: 751f e9bd 8e4d 6c3e c46f f8bd f5da 843d
00000320: 8dbb b43d 5165 413e ba20 573e e53c 6bbd
00000330: 61d6 503c 5355 a73c a791 5fbe 453a 3d3c
00000340: 264c b43d df23 cdbc e461 393d db18 5abe
00000350: 3375 f83c caf0 633d 51fa 09be 82b7 3fbd
00000360: a00a dcbc 7714 643d c998 edbd dd62 293d
00000370: 090a 503d 9e01 c23d f834 ec3b 647e 82ba
00000380: 96de 333e d822 14bd 4ed9 e4bd 8268 443d
00000390: 1609 b73d 6de9 ad3d 7723 b0be 731c 083d
000003a0: b296 c83c 554b cbbe 04f4 59bc 9bba 283d
000003b0: 9fbc 0c3e 127a c7bc fdd4 e03d bfee 4ebd
000003c0: a410 773d 4df3 e93d 619f 803d 96bf c03d
000003d0: e924 d0bd 3a66 953d 544c 00bd c7c0 303e
000003e0: 8913 a0bd 103e 9c3e 6ebc 093e ef8b 253d
000003f0: 63da cbbc eed1 2ebd 61ef 55be c19f 5ebe
0.104719386 0.3080624 -0.044748478 -0.1170733 0.035503123 0.04551957 0.083049074 0.007866624
0.05203441 -0.30003512 -0.16813257 -0.024127258 -0.08113767 0.084646456 0.022812262 0.108805984
-0.07372212 0.030994648 -0.0071677226 0.25033766 0.015162927 0.08086266 0.112856396 -0.14030334
-0.08984249 0.047668148 -0.029983113 0.048542473 0.3750595 0.11759081 0.033551708 -0.051487636
0.16985418 0.29676563 -0.049264185 -0.17600434 0.017792085 0.083224036 0.17427902 -0.11908211
0.085277975 -0.068928786 -0.3695164 -0.12347695 -0.080730066 0.021607086 0.075490676 -0.043883562
0.07931214 -0.00690281 0.04856296 0.10806707 -0.051157203 0.109233595 -0.109058835 0.06875826
-0.024915362 -0.18520592 -0.62681174 0.0035074472 -0.0014968597 -0.18703273 0.10387524 0.026123049
0.10831334 -0.17423253 0.24645282 0.515411 0.11672597 -0.31413767 -0.065463655 0.009107084
-0.1093863 -0.03226079 -0.3515505 -0.058019504 -0.003146997 -0.06937424 0.18605481 -0.5468805
0.031066721 -0.10357338 0.108266644 0.070522524 -0.035902977 -0.016841996 -0.3933719 0.037147116
0.21453486 0.0027455157 -0.07983746 0.08844803 -0.30083013 -0.18991525 0.058461074 0.045897294
0.19867027 -0.3672678 -0.0028711567 -0.5982969 -0.11497469 -0.04293183 0.20390111 -0.20848203
0.055613436 0.39066777 -0.12336914 -0.44380844 0.047361888 0.071613625 -0.11032169 0.030821588
0.013036358 0.07620162 -0.056768224 0.044533625 0.0011293071 -0.42840663 0.032616653 0.064714804
-0.04521073 -0.19947173 0.16406752 -0.11175046 0.028151821 -0.36996627 -0.4895958 -0.12999156
0.21002267 0.18757847 0.19735073 -0.39656198 0.09606719 -0.23121473 -0.052234285 -0.1679414
-0.09785713 -0.07851641 0.34571707 -0.044136886 -0.11623618 0.08117967 -0.31096148 -0.19967543
0.05897974 -0.051214617 -0.05355104 -0.2937534 -0.031552617 0.0727177 0.25477225 -0.013156646
-0.20242971 0.07578694 0.17671897 -0.03734069 -0.057134744 0.022263257 0.1258193 0.06766043
-0.035462096 0.050461162 -0.041329723 0.16445756 -0.11682997 -0.0835685 -0.12736826 -0.21019053
0.0034442798 -0.12168153 -0.27997255 -0.10563035 0.07792569 -0.029797664 -0.038516935 0.005205482
0.108416855 0.13499963 0.040475424 0.07985375 0.12985533 -0.23227343 -0.07590963 -0.18818139
-0.04106491 0.017345734 0.020781916 -0.06561097 0.04371926 0.4097045 -0.38722858 -0.2317053
-0.34103113 -0.09378675 -0.024971722 0.08067221 -0.11382953 0.2307646 -0.121306926 0.06487075
0.08824835 0.18886305 0.21008578 -0.05743112 0.012746424 0.020426428 -0.21832906 0.011549537
0.08803587 -0.025041519 0.04525937 -0.21298544 0.030329322 0.055649556 -0.13474394 -0.046805866
-0.026860535 0.05568358 -0.11601407 0.04135405 0.05079082 0.09472965 0.007208463 -0.000995588
0.17565379 -0.036166042 -0.1117426 0.04795123 0.0893728 0.08491788 -0.34402058 0.033230256
0.02448592 -0.3970591 -0.013302807 0.041193586 0.13743828 -0.0243502 0.10978124 -0.050520655
0.060318604 0.11423359 0.06280399 0.09411542 -0.1016329 0.07294889 -0.031322792 0.17261039
-0.07816226 0.305161 0.13450786 0.040416654 -0.024884408 -0.042680673 -0.20892097 -0.21740629

fc2.bias f4 [10]
00000000: a489 7f3d 2608 8abe 1ca8 01be f0da 7c3b
00000010: 4f70 9a3e d5be 30be ded5 443d 57cf 02be
00000020: c155 81bc 5ec7 25bc
0.062387124 -0.26959342 -0.12661785 0.0038582645 0.3016381 -0.17260297 0.048055522 -0.12774406
-0.015787961 -0.010118334
