latest_cnn.pth (torch, 494453 bytes, 10 tensors)

conv_layer1.weight f4 [32, 3, 3, 3]
00000000: 6072 c43d 9ba1 31be 4f81 023e 8384 29be
00000010: d097 83be 2657 103d 05aa 333e 37d5 c5bd
00000020: 9c79 46bd 4715 a73d 989f 6abe b1ac b6bd
00000030: c1f8 8cbe 0905 14be 261b 0abe ffcb d93e
00000040: de22 bb3e 95cc b23e 30a6 04be faf5 a63d
00000050: 123d 23be 52b6 efbc 3b85 ebbd 2b12 82be
00000060: 12f6 0e3e 8fcc 3b3e 58f7 bd3d 28db a9be
00000070: 932c e3be 6f6e bebe 8b64 843e 6b8f 623e
00000080: 1c12 2c3d a898 643e c3fd 093e eaa2 873e
00000090: 2e49 6d3d 7979 8bbe 0e96 69be 004e 803e
000000a0: 9f5d 1a3e 7043 9fbd edf4 47be a839 4b3e
000000b0: 8d20 413e 0862 87bc adfc 593d aae9 183e
000000c0: 9479 83bd ffe1 843c 4d2f 78be edd5 02be
000000d0: b993 c8bc e539 1d3e 1c32 7c3d 9e53 fd3d
000000e0: a94a 7fbe ff1e 473d 008b 643e 3720 f23c
000000f0: 67fe 66be 72fa a93c d461 6bbe 1108 7b3e
00000100: 14b8 9b3d fd40 2abe 7d9e 943e 7476 473e
00000110: 7c80 4e3e 2771 cebd f0bf ce3d 8286 2c3e
00000120: c7f7 623e 3218 7ebc ba1d f9bd 251f 283e
00000130: 6460 5b3d 9f18 a63c 1683 4fbe fa77 bbbc
00000140: 40e2 0fbc 7f6d 5f3e 264e 793e 9add 39bd
00000150: bca6 8cbc 05f1 203d b715 da3b 95fd 29be
00000160: c45e 7bbe dd4c 42bc 7fde ba3e 329d b53e
00000170: eef4 be3e c1d2 7ebe 4498 90be 1442 52be
00000180: 2c3c 0ebe 6306 e5bd c3cd 14be 36d0 3d3e
00000190: d607 773e 8715 463d 888b 1cbe c475 82be
000001a0: fa74 d1bd 73eb 6a3c d51c e0bd a7d6 a13d
000001b0: 8709 2b3e bf2c 153e abcc d8be 62f7 0cbc
000001c0: dd3a 79be cedb ec3d 613d 74be 491d 13be
000001d0: ae6f b03e 92d3 653e a374 d13d ae61 4fbe
000001e0: f0c9 5fbd 17de 45bd b777 093e 4bde 72bc
000001f0: 3a18 f43d 5b73 bb3e 8ca7 7d3e a82a f5bd
00000200: 6125 19be c62c 333d 63f4 6d3c f2e0 23be
00000210: 690d 67be 0a35 25be 32c1 5ebc 42ed 20be
00000220: 16f2 cebd 6678 823e 6f0f c5bd 197e bebe
00000230: 5ed3 af3e 65fc 293d c069 a7be 8364 19be
00000240: 9117 4d3d dd2a 023d 6fb8 21bd ebe2 9abd
00000250: 432d 70be 788e aa3e eed3 c73d f058 3abe
00000260: 61d9 6bbe a912 c339 b064 4e3e 4ca5 583e
00000270: 0d60 94bc 461d f4bd 24b9 a43e 30d0 ab3c
00000280: 371b 25be 7e7a 34be 18c6 c43d 7cc6 b9bd
00000290: 0d5f 4ebd 9ba4 9c3e f155 e3be 7049 4a3e
000002a0: e5ba 4a3e 8ac1 e9be 9c16 843e 512e 8e3e
000002b0: a8de acbe ccb5 073d 975d 9d3d 3bcb a1be
000002c0: ed1e 5e3e b655 6d3d 03c3 8ebe 49f7 823e
000002d0: 7f6c 63bb 2fe2 2bbe 5e7b 303e 92ec 233e
000002e0: 2baa 7abe d611 613d 0821 0e3e 09a0 8ebe
000002f0: 898c 473e d576 9abd f450 d3bd 0220 b23c
00000300: 7bb6 49be 95a6 0cbe f49f 733e 9c5f f1bd
00000310: 9dd6 103e 6c6e e33c e81b 1abe 9ece 70bd
00000320: 3c0b 7dbe b6d3 2ebe c64b 39be fdda 273c
00000330: 5720 60be 0832 07bc 4b8d 503e f7c7 9f3d
00000340: ba6b 5b3d 59f2 8dbd 383b 143e 6cb6 fabd
00000350: 90d8 f53d 84da c3bd 15c9 013e a31a 0a3e
00000360: 3238 a3be 0e4b 08bd b4df 55be 5191 a63c
00000370: eb04 93be 69e7 1bbe bf1a 47be c1f3 b0bd
00000380: 247a d83d 28ee 9b3d b0f8 e2bd be6d 01be
00000390: 2f86 88bd 5abc 493e 8ca7 953e 3200 8abe
000003a0: 0cac adbd dd1f b93e ab20 13be fec1 453e
000003b0: aa00 7a3e fe62 fcbc 5707 713e 7a6b ba3e
000003c0: a215 a8bd 6dc0 ec3d fc89 d13e f2e6 0cbe
000003d0: bb59 a4be 73ec de3e fc1e 5cbc c3b1 1a3e
000003e0: 4394 093e 39e1 723d 3fda 863e bbaf d1be
000003f0: 744b 6bbe d58d 55be 70ce a53e 3d6d 22be
0.09592128 -0.17346804 0.1274464 -0.16554455 -0.2570176 0.03523936 0.17545326 -0.09659808
-0.04845582 0.08158355 -0.22912443 -0.08919657 -0.27533534 -0.14455046 -0.13486919 0.4253845
0.3655004 0.3492171 -0.1295402 0.08152385 -0.15941265 -0.029261742 -0.11500021 -0.25404486
0.13961056 0.18339752 0.09275693 -0.33175015 -0.44369945 -0.3719363 0.25857958 0.22125022
0.042009458 0.22323859 0.13475709 0.2649148 0.057931118 -0.27241114 -0.22811148 0.2505951
0.15074776 -0.077765346 -0.19527026 0.19846213 0.18860073 -0.016526237 0.053219486 0.14932886
-0.064196736 0.016221045 -0.24236794 -0.12776919 -0.024484502 0.15354116 0.061571226 0.12369464
-0.24930824 0.048613545 0.2231865 0.029556377 -0.22557984 0.020749304 -0.22986537 0.24514796
0.076034695 -0.16626354 0.29027167 0.1947878 0.201662 -0.10080176 0.10095203 0.16848186
0.22164832 -0.015508698 -0.12163873 0.1641813 0.053558722 0.020275412 -0.20264849 -0.022884358
-0.00878197 0.21819113 0.24346218 -0.04537735 -0.017169349 0.039292354 0.0066554206 -0.1660064
-0.24547869 -0.011859146 0.36497876 0.35471493 0.37296242 -0.24885084 -0.2824117 -0.2053302
-0.13890141 -0.11182859 -0.14531617 0.18536457 0.24124083 0.048360374 -0.15287602 -0.25480473
-0.1022739 0.014338362 -0.10942999 0.0790227 0.16702853 0.1456785 -0.4234365 -0.0086039025
-0.24338861 0.11565362 -0.23851539 -0.1436664 0.34460205 0.22443989 0.10227325 -0.20252106
-0.054635942 -0.048307505 0.13424574 -0.014823507 0.11918683 0.36611447 0.24770945 -0.11971027
-0.14955665 0.04374387 0.014523598 -0.16003779 -0.2256371 -0.16133514 -0.013595866 -0.15715507
-0.10104768 0.25482482 -0.09622084 -0.3720558 0.34340948 0.041500468 -0.32697868 -0.14979748
0.050071303 0.03177916 -0.03948253 -0.075628124 -0.23454766 0.3331182 0.09757219 -0.1819799
-0.23032142 0.000372072 0.20155597 0.21156806 -0.018112207 -0.11919646 0.321725 0.020973295
-0.16123663 -0.17624852 0.09608096 -0.09071061 -0.050383616 0.30594334 -0.44401506 0.19754577
0.19797857 -0.4565547 0.257985 0.27769712 -0.33763623 0.03313236 0.076838665 -0.31600365
0.21691485 0.05794307 -0.27883157 0.2557929 -0.003470212 -0.16785501 0.17234561 0.16008213
-0.24478976 0.05494865 0.13879788 -0.27856472 0.19487204 -0.07542197 -0.10318175 0.021743778
-0.19698517 -0.13735421 0.23791486 -0.11785814 0.14144368 0.027762614 -0.15049708 -0.058790796
-0.24711317 -0.17072949 -0.18095312 0.010245082 -0.21887337 -0.0082516745 0.20366399 0.07801812
0.053569533 -0.0693099 0.14475715 -0.122418255 0.12004197 -0.09563163 0.12674363 0.13486724
-0.3187881 -0.033274703 -0.20886117 0.020332964 -0.2871469 -0.15224995 -0.19443797 -0.08640242
0.105701715 0.07613784 -0.110825896 -0.1263952 -0.066662185 0.19700757 0.2922939 -0.26953274
-0.08480081 0.36157122 -0.1436793 0.19312283 0.24414316 -0.030808922 0.23537956 0.36410123
-0.08207251 0.1156014 0.40925586 -0.13759974 -0.3209971 0.4353977 -0.013435122 0.15106873
0.13435464 0.05929682 0.26338384 -0.40954384 -0.22978002 -0.20854886 0.32384062 -0.15861984

conv_layer1.bias f4 [32]
00000000: fe10 55be 0830 84bd 0864 b2be 9570 25be
00000010: 6a81 16bd 7014 80be 9bd1 17bd a088 4cbe
00000020: f647 8abe 1ea0 56bd 6077 42bc 1bd8 46bd
00000030: 529b dc3d 7533 29bd 3881 98be 48a7 e5bd
00000040: 3062 803a 9084 8fbc 6994 51be 9c57 52bc
00000050: ab2f 2cbd 6fae 2bbd 173a c5bb a40e 74bd
00000060: 7aba c4bb a9b1 91bd 5b0b 013d b20f 1fbd
00000070: eebd 113e eb67 08be 704d a2bd 9030 efbc
-0.20807263 -0.06454474 -0.34841943 -0.16156228 -0.036744513 -0.25015593 -0.03706513 -0.19973993
-0.27008027 -0.052398793 -0.0118692815 -0.048545938 0.107718125 -0.04130884 -0.29786086 -0.11213547
0.0009794887 -0.017519265 -0.2046677 -0.0128382705 -0.042037647 -0.0419144 -0.0060188877 -0.059584275
-0.006003675 -0.07113964 0.03150497 -0.038833328 0.14232609 -0.13320892 -0.07924926 -0.029197961

conv_layer2.weight f4 [64, 32, 3, 3]
00000000: 6511 b1bc d1a9 dcbc 636c ea3b 6646 84bc
00000010: 6cea 333d 0ffc 7fbd 4da8 41bd 7a5e 193c
00000020: b8ea 54bb ff49 dcbc e121 c9bc 6ac5 b8bd
00000030: 6fb3 103d c193 07bc fdc1 ccbc eee3 59bb
00000040: 14fe 0cbd f477 153c 824d ac3c bdf5 003d
00000050: d646 06bc 9f00 6bbc ef0a 1bbd 26ad 3fbd
00000060: 444d 183d 263e b13c 21b5 1cbd 5d5e 3e3d
00000070: 52e4 92bc 0b1c 27bd c785 a93c 425c d63c
00000080: 0246 c13c 38fe 99bc 1a44 a6bc d199 8dbc
00000090: 8b24 2dbd 76ed d1bd 6e01 2bbd f974 00be
000000a0: 09aa 8abd 4492 4dbd c11e 81bc bcc2 b8bd
000000b0: 036e 04bd 9e22 c4bd 0bce 2ebb 3b00 81bd
000000c0: e022 1cbe 7726 f6ba 8d6a b5bd 9cf7 abbd
000000d0: 0685 1dbd f229 b5bd dc08 c8bc 8892 a6bb
000000e0: 8f2b 72bd aa23 dbbc 8696 a5bc 0a31 d0bc
000000f0: d6d5 a93b 125d ab3d b13e a3bc d201 d2ba
00000100: e967 aabd fb2a 033c 73f9 88bd 3f2b e1bd
00000110: 8259 91ba 16f8 f3bc e73e aebd c46c 96bd
00000120: d1eb 4bbd 9b11 2a3c b8d9 ce3b ed20 88bd
00000130: 299e 45bd 00a0 32bd 1afc 7ebb f912 a9bd
00000140: 59b1 b93b 67df 803b f3c8 e5bc bb65 b5bc
00000150: 4407 62bc a5a9 763c 116b e0bb 8280 01bc
00000160: 125e 72bc 0566 e5bd 93f1 bebd 7d90 3cbd
00000170: 1be5 9fbd 603d 97bd 7a0d fc3a d585 d5bd
00000180: a8de 9abc 4c35 8bbd 81d2 b6bd e0dc 02bc
00000190: 1eaf bcbd 11cd 83bd cbce 28bd 8735 34bd
000001a0: 0944 90bd bd24 b8bd 2aa1 3bbc 53d0 08bc
000001b0: 0422 293d 3e12 9abc d603 bfbc 9ec0 adbc
000001c0: eb41 57bd 4306 bbbd 47b6 ce3c 3b0d adbd
000001d0: ac68 87bd 597e 80bd 5cc9 59bd 2124 9bbd
000001e0: 4207 8dbb 74d9 683b 97dc cebd 85c3 abbd
000001f0: b703 30bc b347 23bd 8d7e ce3a 4506 5ebd
00000200: 2eb6 a43b a0ca d6bd bf62 3cbd 6345 b4bd
00000210: c4d8 acbd f32a 91bd 6a18 a93c 88e8 3bbd
00000220: b5bb f33c 3f5f 65bd 3d72 a8bc f68d bdbc
00000230: 5284 1e3c caca 863d 88a9 7d3c 9d7f 8e3b
00000240: 9cde dfbd dca3 a4bd 25e1 c4bd 5a55 19bd
00000250: e2ba e0bd 5f4e 86bb 11ed a6ba 8410 8ebd
00000260: b3cc e1bc 219d 5cbd cb5c 083d 8f94 d3bb
00000270: 8e50 4fbd 5101 28bd 43af d2bc 453f 783c
00000280: 5d5c aebc 332b cab8 43c6 6bbd 8bd7 513c
00000290: 5aea c0bd 94ec d1bc 3d6c da3c 3ac0 9e3c
000002a0: 25cd 95bd 3187 6b3d 5d0e 52bb 4565 94bd
000002b0: ef33 afbd a04f 87bd 0eb1 a6bd 5106 bebd
000002c0: 668c 5c3a 5a04 3abd ba9f 223d e01c 533d
000002d0: 45ef 59bc e871 8b3b bd40 bbbc bd95 24bd
000002e0: 8819 aabc 465e 43bd d265 febc a389 4bbc
000002f0: 685d 3e3c fd2d 04bd 890c f53c 0598 093c
00000300: 1a09 a63d 5380 9e3d 6a98 2dbd 53fc 7c3d
00000310: 00d8 c73c fc35 c13b e2c7 07bc a806 22bb
00000320: 75a7 213d 3b05 c5bc 2867 183d fc82 ba3b
00000330: 1134 3bbd 0497 3d3b 3a02 97bd 18b2 b0bd
00000340: 45a6 98bd 0e79 61bc 317c ba3c 1bf6 833b
00000350: 14fd a1bc 167d d7bd 4079 7dbc 9c86 21bd
00000360: 2d6d 13bd 2c4c 3dbd 46e5 9fbd 69f9 b1bd
00000370: d091 e6bc c68e 91bd c437 f2bd de8c d5bc
00000380: 3d46 f0bb d5f1 40bd 311f 99bd a831 84bd
00000390: e29c c8bc 2b2d 13be 06dd b8bb b9d0 a4bd
000003a0: 3d2f f8bd c6e1 96bd 7406 79bd 76ad 31bd
000003b0: ddbe 96bd ee14 943c 187c aebd 4526 6bbd
000003c0: dd5a 54bd 0040 50bd 8884 10bd db1f 90bd
000003d0: 7d94 87bd 42f7 fbb8 2989 9dbd 6663 9ebd
000003e0: 58e2 34bc e670 9abd fa75 cabd dc6b c83c
000003f0: 1b34 82bc 3b15 b43c 2a4a 9ebb f515 b0bd
-0.02161474 -0.026936444 0.007154034 -0.01614685 0.043924734 -0.06249624 -0.047279645 0.009360904
-0.0032488536 -0.026890753 -0.024552288 -0.09022029 0.03532737 -0.008274973 -0.024994845 -0.003324743
-0.034421995 0.009122837 0.021033052 0.031484354 -0.0081956 -0.01434341 -0.037852224 -0.046795987
0.03718306 0.02163608 -0.038258675 0.04647671 -0.017931137 -0.04079823 0.020693673 0.026167039
0.023592953 -0.018797979 -0.020296145 -0.01728526 -0.04227118 -0.1025037 -0.04174941 -0.12544622
-0.06770713 -0.050188318 -0.015761735 -0.09021518 -0.032331478 -0.09576915 -0.0026673104 -0.06298872
-0.15247679 -0.0018779774 -0.088582136 -0.08396837 -0.03845694 -0.08845891 -0.024418287 -0.005083386
-0.059123572 -0.026750404 -0.020213377 -0.025414009 0.005182962 0.08367361 -0.019927355 -0.0016022271
-0.083206005 0.008005853 -0.06688204 -0.10994577 -0.0011089297 -0.029781383 -0.085080914 -0.07344964
-0.04978544 0.010380174 0.006312575 -0.06646905 -0.048246536 -0.04360962 -0.0038907588 -0.08255572
0.0056668934 0.0039328816 -0.028049922 -0.022143235 -0.013795678 0.015055095 -0.006848701 -0.007904174
-0.014792936 -0.11201099 -0.093234204 -0.046036232 -0.0780737 -0.07384753 0.001923009 -0.10425917
-0.018904999 -0.06797275 -0.08926869 -0.007987231 -0.092130885 -0.06435598 -0.04121284 -0.04399636
-0.07044227 -0.08991382 -0.011451999 -0.00835045 0.041292205 -0.018807527 -0.023317259 -0.021210011
-0.0525531 -0.09132054 0.025233401 -0.08449789 -0.066117615 -0.06274099 -0.053170547 -0.075752504
-0.0043038437 0.0035530003 -0.10100668 -0.08386902 -0.010743073 -0.0398633 0.0015754268 -0.054205198
0.0050266003 -0.104878664 -0.04599261 -0.08802297 -0.08439782 -0.0708827 0.020641524 -0.045876056
0.029752592 -0.055999037 -0.020562286 -0.023138981 0.009675102 0.06581648 0.015482314 0.004348709
-0.10931131 -0.08039066 -0.096132554 -0.037434913 -0.10973145 -0.004098698 -0.0012735446 -0.06936744
-0.027563429 -0.053860787 0.03329162 -0.0064569185 -0.050613932 -0.04101688 -0.025718337 0.015151803
-0.021284277 -9.640157e-05 -0.057562124 0.012807737 -0.09419699 -0.025625505 0.02666294 0.01937877
-0.07314519 0.057501975 -0.0032052018 -0.07245878 -0.085548274 -0.06606984 -0.08139239 -0.092785485
0.0008413255 -0.045414306 0.03970311 0.05154121 -0.013301675 0.004255522 -0.022858018 -0.040181864
-0.020764127 -0.047697328 -0.031054411 -0.012422952 0.0116189495 -0.03227042 0.029913204 0.008398061
0.08107205 0.0773932 -0.04238168 0.061764073 0.024394989 0.005896328 -0.008287402 -0.0024723206
0.03946634 -0.024050346 0.037207752 0.005691884 -0.04570395 0.0028929124 -0.073734716 -0.08627719
-0.074535884 -0.013761772 0.022764297 0.004027141 -0.019773997 -0.10521905 -0.015470803 -0.039435014
-0.03599279 -0.04621522 -0.07807402 -0.08690149 -0.0281457 -0.0710731 -0.11827043 -0.026068147
-0.007332592 -0.04710563 -0.074766524 -0.06454784 -0.02448887 -0.14372699 -0.0056415824 -0.08047623
-0.12118385 -0.073672816 -0.06079717 -0.043378316 -0.07360623 0.018076386 -0.08519763 -0.057409544
-0.051844466 -0.050842285 -0.03528264 -0.07037326 -0.06620119 -0.00012014668 -0.07692177 -0.077338025
-0.011040293 -0.07541065 -0.098857835 0.024465494 -0.015893986 0.02198278 -0.0048306184 -0.08597938

conv_layer2.bias f4 [64]
00000000: 6ea4 423b f79c 3abd 1153 553e d9c3 3bbe
00000010: 5c30 673e 0775 12bd 337a 04be 4bd3 d1bb
00000020: c477 673e d887 dbbd c61c 58be a158 3b3e
00000030: c0cc 11be 223f 5cbe 62ee 9abd ac22 843e
00000040: 9cde 8abe 6dd6 073e 46ea 9f3e 8480 8fbd
00000050: b00e 833d a001 933e c131 273e 502b 54bd
00000060: 61c8 cabd b06d 133e 402e 323d 2a0e 5c3d
00000070: 15bc 44bd 634d 043d 1ff6 11bd 788e 92bd
00000080: 9866 a3bd 6e83 a13c 9278 833e f986 403d
00000090: d107 843c c1f6 99bc b2b4 233e d23f bf3c
000000a0: e93d 0b3c 44ee 81bd b490 d53d b52a 72bc
000000b0: 388c fabd 2316 e9bd ed53 883e 29f6 7f3d
000000c0: 3eb5 63bd 8abc b1be 2a61 6c3c 8100 b63c
000000d0: 2216 a23e d682 35be 0825 59be bc0a 0b3e
000000e0: 18fd 23bd 9a5a 0cbb 9cfc 5abd 5588 9fbc
000000f0: daa1 bbbc ce23 28bd 6097 21be bf7c 433d
0.0029700059 -0.04555985 0.20832469 -0.18336429 0.22577041 -0.035756137 -0.1293724 -0.006403362
0.2260428 -0.107192695 -0.21104726 0.18295528 -0.14238262 -0.21508458 -0.07564999 0.25807703
-0.27122962 0.1326539 0.31233424 -0.07006934 0.06399286 0.28712177 0.16327573 -0.05179912
-0.099015005 0.14397311 0.04350114 0.053724445 -0.04803093 0.032300364 -0.03563511 -0.0715608
-0.079785526 0.01971599 0.25677925 0.04700372 0.016117008 -0.01879442 0.15986899 0.023345862
0.008498647 -0.06344274 0.104279906 -0.01478069 -0.12233776 -0.11381175 0.2662653 0.062490616
-0.055592768 -0.34714156 0.014427463 0.022217037 0.3165751 -0.17725691 -0.21205533 0.13578314
-0.04003629 -0.0021416307 -0.053463563 -0.019474188 -0.022904325 -0.04104977 -0.15780401 0.04772639

conv_layer3.weight f4 [64, 64, 3, 3]
00000000: 7ee5 ef3c 7a03 09bc fa55 ed3a ec57 a9bb
00000010: e64d 243c 4107 4abc 5b08 113d 10e7 593c
00000020: 261f 06bd 6782 943c 8123 183c 2158 d73b
00000030: 7e72 393c e9bc dbbc cc74 e3bc c33c fdbb
00000040: 35f1 89bc a784 80ba 1c37 2dbd 1e18 b1bc
00000050: 15df 79bc 8512 20bc cd8d c3bc 60c1 ef3b
00000060: 55f7 9d3c 941e 03bd a753 893a 763b bf3b
00000070: 5aa1 6fbd 87ab b4bb 2367 c4b9 3e98 0c3b
00000080: 6cec e2bb 98b8 27bd 4704 ddbc 914f 3cbd
00000090: 0e92 01bd 4bf3 61bd ae19 33bd 8baf 0d3d
000000a0: b0c6 64bc f842 56bd 906c 19bc c05f 7abb
000000b0: 824a 84bc a739 babc 1bc5 6bbd 52c7 3fbc
000000c0: b66d 633a 48e3 6fbd e6bd 71bd d031 c4bc
000000d0: 4647 77bd 7353 2cbc 2654 1abc 5927 efbc
000000e0: a253 463c 56f4 0cbd 76e3 e1bc fb5d 6dbd
000000f0: bb9f b5bc 049b 90bc 4fd1 4bbd 1003 073d
00000100: fa6b 123d 4b00 03bc 4227 033d 738b 203d
00000110: c3a2 c53c 60c3 92bb 9c37 1bbd f692 ab3c
00000120: 537e 87bc 80ab c1bc 8e6b 2dbb 35dd 7abb
00000130: ef76 1b3b 9161 ba38 e26b b7bc 5b4c 26bd
00000140: 2251 3fba 47f2 11bd 0982 a63c e023 8a3c
00000150: 27fd 083c 2562 1ebd dab4 97bc 2c47 52bd
00000160: efd9 02bd 65fe 54bd ef82 b2bc a603 4bbd
00000170: d4ab 83bd 34af 05bd 7f17 143c dd38 5dbd
00000180: 7e23 a0bc 6a58 4cbd c8d3 d83b 33b1 d0bc
00000190: 0ec2 083c eb3a 17bd 6144 c13c 76b9 2ebb
000001a0: 1941 16bd a42f 75bd 4bd1 e7bb e808 dbbc
000001b0: 5ab6 81bd 80b2 50bd e6ec fcbc d74a 2cbd
000001c0: 3872 05bc e68a 383c 3801 23bd 317e e53c
000001d0: c1c9 61bd 436f 0ebc bd68 28bc 81a4 6dbd
000001e0: 49ad 5ebb ad5e 42bc 1e65 6fbd 34ae 55bc
000001f0: 13e9 a53b f93e 093c d009 313c d65b 873a
00000200: 3600 eabc c0e5 5ebc 6fc9 0f3d e03d 6fbc
00000210: bba8 2e3c ee67 a43c 50ac 16bd c4e6 14bd
00000220: d834 0e3d c6d1 913c eaa5 813b b13e abba
00000230: 37bb dc3b d3c6 b43b 73f5 0cbc 78ad 48bd
00000240: cd8e 3dbd eb82 34bd 1ad7 873c 6526 36bd
00000250: fa43 ddbc bb60 4ab9 b083 e0bc 43e1 50bd
00000260: 7cf6 8bbd ba73 33bd bc41 65bc c719 3f3a
00000270: 08ac 023c 0942 26bd 8e66 f4ba fa7f 873c
00000280: 639c 2bbd fa0b 98bc 9bfa 843c ff98 a0bc
00000290: 1dca b43c 5121 c43b 9197 0bbd 5275 0b3d
000002a0: 1d90 2abd 3faa 45bd e465 153d 472a c0ba
000002b0: a542 8fbd f878 063c fba8 44bd eb73 18bc
000002c0: 2d9c cbbb 410e e9bc d539 80bc 1d2b 4fbd
000002d0: 6fc7 6fbd 4dac 24bc 6f8b 0e3c 42d3 12bd
000002e0: 5206 bdbb 1e37 743c 6d6f dabc 4737 85bc
000002f0: 116d cfbc ad57 023d 3580 483d 92ab 0fbd
00000300: 10a3 cebc ab7d 0fbb 88a6 8abc e8c4 b13c
00000310: 6632 3fbc 1668 0dbd a1b1 673b f4dc f53c
00000320: 43a7 86bc 941a a5ba 07c3 11bd 9cd2 f7bc
00000330: 120a 43bd 4c58 26bc acf3 52bd c8ff 28bd
00000340: 8004 a93b 0079 373c b6ae f23b 569d 5bba
00000350: 774d 26bd 6b68 49bb ab4d 383b 6b85 f6bb
00000360: f560 e7bc 5048 993c 65c5 8bbd 5efb 21bc
00000370: 3eef e1bc 3535 ebbc 12e8 eabc e7ed 353b
00000380: 0d89 8bbd 7786 67bd 21bd 49bd 07dd 19bd
00000390: 6d7f 6b3b 9310 383c 1f0a 26bd d56f edbc
000003a0: 3917 e4bc 0d73 34bd 883f 953c ba46 3bbd
000003b0: 63b0 7e3c 504f 5dbc 0010 c2ba c52c f5bc
000003c0: 76e8 413c d658 48bc 25a6 22bc 30dc b5bc
000003d0: 7c16 b5bc e0c3 46bd b475 2bbd 9dda 28bd
000003e0: 75e0 4fbd d2d0 dbbb dd8f 20bd 8ce1 19bd
000003f0: 6304 ddbc 6b2a 2a3b 4b1e e1bc 30b6 953c
0.029284235 -0.008362645 0.0018107288 -0.005167952 0.010028338 -0.012330831 0.03540836 0.0132997185
-0.03274455 0.018128587 0.009285809 0.006571785 0.011318801 -0.026823478 -0.027765654 -0.0077281906
-0.01683865 -0.0009805158 -0.042288885 -0.021617945 -0.015250941 -0.00977004 -0.023871327 0.0073167533
0.019282976 -0.032011583 0.0010477201 0.0058359457 -0.058503486 -0.0055136117 -0.00037460876 0.0021453048
-0.0069251563 -0.040947527 -0.026979579 -0.045974318 -0.03163343 -0.055163663 -0.043725662 0.03459124
-0.013963386 -0.05230996 -0.009364262 -0.0038204044 -0.01614881 -0.022732569 -0.05756102 -0.0117052365
0.0008675711 -0.05856636 -0.059018992 -0.023949534 -0.060370706 -0.010517943 -0.009419477 -0.029193567
0.012104901 -0.034412704 -0.027574282 -0.057950955 -0.022170892 -0.017652042 -0.04976016 0.032961905
0.035747506 -0.007995675 0.03201986 0.03919549 0.024125462 -0.004478857 -0.03789483 0.0209441
-0.016539728 -0.023641348 -0.0026461813 -0.0038278822 0.0023722013 8.887344e-05 -0.02239031 -0.040600162
-0.00072981615 -0.035631444 0.020325677 0.01686281 0.0083611375 -0.038667817 -0.018518854 -0.051337406
-0.03194612 -0.052000422 -0.02179095 -0.049564026 -0.06429258 -0.03263779 0.009038805 -0.054009307
-0.019548174 -0.049889006 0.006617043 -0.02547512 0.0083470475 -0.036921423 0.023592176 -0.0026660836
-0.036683176 -0.059859887 -0.00707451 -0.026737645 -0.06333609 -0.05095148 -0.03087468 -0.04206356
-0.008144908 0.011263585 -0.039796084 0.028014274 -0.05512405 -0.008693519 -0.010278878 -0.05801821
-0.0033977798 -0.011863393 -0.058446042 -0.013042022 0.005063185 0.00837683 0.010805562 0.0010327052
-0.028564554 -0.013604581 0.03510421 -0.0146021545 0.010660346 0.020069089 -0.036785424 -0.036352888
0.034718364 0.017800223 0.003956546 -0.0013064948 0.006736185 0.0055168658 -0.0086034415 -0.048993558
-0.046278764 -0.044070166 0.01658206 -0.04447021 -0.027009953 -0.00019300256 -0.027406543 -0.050996076
-0.068341225 -0.043811537 -0.013992723 0.0007289913 0.007975586 -0.04059032 -0.0018646286 0.016540516
-0.04189719 -0.018560398 0.01623278 -0.019604204 0.022069031 0.005985417 -0.034080092 0.034047432
-0.041641343 -0.048258062 0.036474124 -0.0014661037 -0.06995133 0.008207552 -0.048012715 -0.009304981
-0.006213686 -0.02844918 -0.015652576 -0.050578225 -0.058539804 -0.010050845 0.008700236 -0.035846002
-0.0057685757 0.014905719 -0.02666446 -0.01626171 -0.025320562 0.031821895 0.048950393 -0.03507573
-0.025224239 -0.0021894972 -0.016925111 0.021700338 -0.011669731 -0.034523092 0.0035353678 0.030012585
-0.016437178 -0.0012596422 -0.035586383 -0.030251794 -0.047617026 -0.010152888 -0.051501915 -0.041259557
0.005158007 0.011198282 0.007406081 -0.0008377632 -0.04060122 -0.0030732404 0.0028122466 -0.007523229
-0.028244475 0.01871124 -0.068247594 -0.009886591 -0.0275799 -0.028711895 -0.028675113 0.002776021
-0.0681325 -0.05652472 -0.049252633 -0.037564304 0.0035934106 0.01123442 -0.040536996 -0.02898399
-0.027843105 -0.044055033 0.01821877 -0.045721747 0.015544984 -0.013507679 -0.0014805794 -0.029928574
0.011835208 -0.012228211 -0.009927307 -0.02219972 -0.022105448 -0.048526645 -0.041860297 -0.04122411
-0.05075117 -0.006708243 -0.0391997 -0.037568614 -0.02697963 0.0025965224 -0.027480265 0.01827535

conv_layer3.bias f4 [64]
00000000: cc5d 10bd ab6d 4b3d 8f39 80bd a72e 34bd
00000010: 1723 053e 9964 5e3e ba19 2e3e 8695 613e
00000020: 1065 793e 3712 b63d 8f70 c339 74d1 5d3e
00000030: 9675 8cbc ce0a a93d ab2d 4fbb bc4f 173b
00000040: cd7c 603e 9e9b debc 69ed 8e3d 09c9 ab3d
00000050: 462d e73c 6e22 b43e b9c6 8a3e 9274 483d
00000060: 8b10 b1bd c03a 143e f2e0 27be a502 b23a
00000070: e2cd 1fbd 2d56 bf3e f940 bebc 1847 a43e
00000080: a464 023e a57c 28be 8b15 fdbc ec1d 9b3e
00000090: d8d3 e6bd 93ed 503b ac41 d0bc cff6 f83d
000000a0: 1df9 e3bb fb87 91bc bf70 8cbd ab46 18bd
000000b0: adf1 14be 93c2 0bbe 2f74 f43d 669b 40bc
000000c0: 6e7a 50bd eea3 b43e f917 fbbd 2ba8 d33d
000000d0: cf2e f2bd f786 dbbd 85c6 d23d ecd6 a6bd
000000e0: fad9 3ebd 4ac5 05bd 9f4a e0bb bb40 2fbd
000000f0: 10cb 683d 946e cb3c 7aba 1c3e e301 cb3d
-0.0352457 0.049665134 -0.062609784 -0.043989804 0.13001667 0.21718062 0.17002001 0.22029695
0.24354959 0.08890193 0.0003727716 0.21661931 -0.017145913 0.08254014 -0.0031612914 0.0023088297
0.21922608 -0.027173813 0.06978876 0.08387954 0.02821983 0.35182518 0.27104738 0.048939295
-0.086457334 0.14475536 -0.16394404 0.001358111 -0.039014705 0.37370434 -0.02322434 0.3208549
0.12733704 -0.16453798 -0.030894062 0.30296266 -0.11270875 0.0031879887 -0.02542194 0.1215645
-0.006957187 -0.017765036 -0.06857442 -0.03717677 -0.14545317 -0.13648443 0.11936223 -0.0117558
-0.050898008 0.35281318 -0.12260432 0.1033481 -0.11825334 -0.10719102 0.10291771 -0.08146462
-0.046594597 -0.032658853 -0.006844833 -0.04278634 0.05683428 0.024833001 0.1530551 0.09912469

fc1.weight f4 [64, 1024]
00000000: 7436 bfbc c84a c0bb 6020 a5bc 9033 023b
00000010: 50a3 babc aad8 b1bc 9c14 54bc e804 143c
00000020: ca1c e7bc 387c 553c 5263 cd3c 902f 2f3b
00000030: b864 46bc b61e e53c 103c cabb deb1 f4bc
00000040: b987 84bd 5ce0 71bd 9e4d 07bd 3bbc 99bc
00000050: 4dab 8fbd b04b cb37 a39c 2ebd a0e2 76bd
00000060: 8f29 2cbc 75ae 52bd b86a 7fbd fb72 53bd
00000070: 35ee 52bc 1745 d5bc cac1 5dbd b695 8ebd
00000080: 5a22 093d 0a97 1a38 dc96 1a3d 1d12 003d
00000090: d96a 51bd e580 d6bc 7174 0a3d f8a9 aabd
000000a0: 8e06 44bd 952a 23bc 5089 32bd 66d2 a6bc
000000b0: 080a 69bc 0289 8abc 3fec 09bd 59d3 28bd
000000c0: 365c b0bc 2ab8 fdbc 40ef 6c3a 4822 bd3b
000000d0: 0e2b c83c 78c9 073c bc15 3abc a013 7ebc
000000e0: 9869 cfbb 1832 c93c 08c7 36bc 00b5 e73b
000000f0: 9e9d ee3c 74d8 8f3c b092 473c 14c0 d63c
00000100: dc1f 17bd 7662 23bd 2381 b8bb 309a babc
00000110: 3260 80bd 9b60 84bd 7842 1fbd bd07 67bc
00000120: 6984 c23c 4f21 013d 1f18 c4bc 2ff4 ba3c
00000130: a02a 3ebb 3497 fe3b c724 483c 328e b53b
00000140: 792d f1bc 829f 1b3c 7632 bc3b d024 8cbd
00000150: 5d13 213d c25e 233c 9d89 d03a a61f 73bb
00000160: 36f5 a8bc 4c3f 9abc bd8f 0fbd ffb1 81bd
00000170: 1b77 b5bc 01ac a13a 7438 1e3d 534e babc
00000180: 0ad0 ff3c a246 0c3b 0999 313c 0625 cebc
00000190: 9962 023d d303 463c db98 d83c c7da f53c
000001a0: 00fe 4e3c 5fbc c93b ad4a b93b 9e19 4b3c
000001b0: 51a0 bd3c ff16 43ba 47f2 62bb 3879 5d3d
000001c0: 55c9 fa3c f49a 04bd 75ad 26bd 5d24 6abc
000001d0: 3b14 073b 4ed1 a5bb 468f 703c d9ba e4bc
000001e0: ba24 1c3d 52e3 343c dd34 03bc 5b60 47bd
000001f0: 971d 4dbb 91fa 793c cbc2 3abd 7b24 dabb
00000200: 7d03 89ba 687e 233d 6dad c13c 0230 42bd
00000210: 1789 6d3c e422 3e3d 85fe d53c 598b 74bb
00000220: 6390 ee3c 0866 afbc 04db 4dbd f1f4 573b
00000230: cd8d 22ba ce5f 6cbd 23a7 df3c c899 c03c
00000240: 58fc 143c ad1f 74bc ddb2 4f3c a605 39bc
00000250: f249 9dbc 7c02 a7bc 82d2 35ba 13ce 61bd
00000260: e01e e23c 89fe dc3c 698d babc 7d77 91bb
00000270: 6339 0fbd 6ae1 1dbd 15c5 4fbd ca02 48bb
00000280: 2211 b73c be3a 013c e9d8 c1bc 12fd a73c
00000290: 178f d83c 6287 b7bb 9666 4d3b 54f6 113c
000002a0: f249 903b 4d2b 36bd 0904 06bd 1176 0abc
000002b0: f6bb 13bd dd3e 2ebd 7aeb 703c b12b 06bc
000002c0: b989 8cbc d14a 80bd ebd3 10bd 9bbb 3ebd
000002d0: f48d 6fbd 038f 68bd 4fc1 70bd 7823 aebc
000002e0: 574e 84bc fb99 c2bc 8f09 16bd 0140 a8bc
000002f0: 5ccf 72bd 07b8 42bd fd90 f7bc 0595 3cbc
00000300: 7063 e5bc 6468 dcbc 402a 6dbb 989e f0bc
00000310: c05c 82bc 98fd 023c 5864 aa3c f2f9 8a3c
00000320: 72af 9f3c 808f 3bba 8c5e dcbc d069 0e3b
00000330: 0acf ea3c 50af 6d3c 1ecc df3c 2499 bd3c
00000340: 025b 8f3c 86aa 9ebb c7bf 1ebc c087 69bd
00000350: 44a4 8d3b 0f33 423c 33c2 853b a583 093d
00000360: d97b b0bc cc26 e03b d3d3 11bd 48e8 173d
00000370: 8e32 fcbc 93d9 8dbd 7616 33bd e1c9 40bd
00000380: b457 ab3c 5f37 e83c 294d f3bc 58f6 a7bc
00000390: 169a a7bc 1b3e d73a 8874 18bd 2fc7 fabc
000003a0: 7305 503b 0b97 8a3a ca04 4f3c f53d 883c
000003b0: 3967 14bb 3651 a6bc 6fe3 dbbb a0dc e93b
000003c0: e474 3cbd 1cbd 433d 02e9 243d 4abf 0dbc
000003d0: 8282 e4bb 8ee7 dfbc d82c 55bd 3172 0fbd
000003e0: c719 a2bb 2af5 b2bc 62cb e9bc 6a57 66bb
000003f0: f829 a8bc 3bfc 44bd ec00 89bd f455 24bd
-0.023341395 -0.0058682896 -0.02015704 0.001986716 -0.022782952 -0.021709759 -0.012944367 0.009034373
-0.02821197 0.013030104 0.025071774 0.002673123 -0.012108974 0.027968746 -0.006171711 -0.02986997
-0.064711995 -0.059051856 -0.033033006 -0.018766513 -0.07015095 2.423473e-05 -0.04262985 -0.06027472
-0.010507955 -0.051435906 -0.062357634 -0.051623326 -0.012874176 -0.026033921 -0.05413989 -0.06962149
0.033480026 3.6857127e-05 0.037741527 0.031267274 -0.05112729 -0.026184509 0.033802453 -0.083332
-0.047857814 -0.009958883 -0.043587983 -0.020363998 -0.014223583 -0.016911034 -0.033672567 -0.04121718
-0.021528345 -0.030971605 0.00090383366 0.005771909 0.024434593 0.00828778 -0.011357721 -0.015507609
-0.0063297264 0.02456002 -0.011155851 0.0070711374 0.029127892 0.017559268 0.012180969 0.026214637
-0.036895618 -0.03988882 -0.0056306287 -0.0227786 -0.06268348 -0.064637385 -0.03888175 -0.014100966
0.023744779 0.031525906 -0.023937283 0.022821514 -0.0029017106 0.0077694897 0.0122158 0.0055406326
-0.029440628 0.009498479 0.00574332 -0.06842959 0.039325107 0.0099713225 0.0015910153 -0.0037097721
-0.020624738 -0.01882901 -0.03504919 -0.06332778 -0.02215152 0.0012334586 0.038628057 -0.022742426
0.03122713 0.0021404405 0.010839709 -0.025164139 0.03183231 0.012085873 0.026440075 0.030011548
0.0126338005 0.006156489 0.005654654 0.012396244 0.023147734 -0.00074420864 -0.0034629272 0.05407068
0.03061358 -0.032374337 -0.040692765 -0.014290896 0.0020611424 -0.0050603515 0.014682597 -0.027921127
0.038120963 0.0110405255 -0.008008209 -0.048675876 -0.0031298154 0.015257494 -0.045595925 -0.006657181
-0.001045331 0.039915472 0.023642266 -0.047409065 0.014498017 0.046419993 0.026122341 -0.0037314503
0.029121583 -0.021410957 -0.050257698 0.0032952393 -0.00062009395 -0.057708554 0.027301377 0.023510829
0.009093367 -0.01490013 0.012676922 -0.011292851 -0.019200299 -0.020386927 -0.000693597 -0.05512817
0.027602613 0.02697684 -0.022772508 -0.004439293 -0.034966838 -0.03854505 -0.05072506 -0.003051924
0.022347037 0.00788754 -0.023663001 0.020506416 0.026435418 -0.0056008557 0.0031341664 0.008908827
0.004403346 -0.04447489 -0.032718692 -0.008451001 -0.036067925 -0.04254042 0.0147045795 -0.008189128
-0.017155515 -0.0626427 -0.03535835 -0.046565633 -0.058484986 -0.05677701 -0.058778103 -0.021257147
-0.016150637 -0.023755064 -0.03663021 -0.020538332 -0.059279785 -0.047538783 -0.030220503 -0.011510138
-0.028001517 -0.026905246 -0.0036188513 -0.029372498 -0.015913367 0.007995032 0.0207998 0.016964886
0.019492839 -0.0007154867 -0.026900552 0.002173055 0.028663177 0.01450713 0.02731901 0.023144312
0.01749945 -0.0048421053 -0.009689278 -0.057014227 0.0043225605 0.011852994 0.0040819882 0.03357281
-0.02154343 0.0068405624 -0.035602402 0.037086755 -0.030785825 -0.069262646 -0.043722592 -0.047067527
0.020915844 0.028346715 -0.029699879 -0.020503208 -0.020459216 0.0016421707 -0.037220508 -0.030612556
0.003174153 0.0010573579 0.012635419 0.016631106 -0.0022644533 -0.020302396 -0.006710462 0.0071368963
-0.046009913 0.04778777 0.040261276 -0.008651564 -0.0069735656 -0.027332094 -0.05204472 -0.03502101
-0.0049469206 -0.021845419 -0.028539363 -0.0035147318 -0.020527825 -0.04809211 -0.06689629 -0.040121034

fc1.bias f4 [64]
00000000: db33 84bd c227 1e3d 3c26 ecbc 9839 2f3e
00000010: c596 883e d0a1 81bd eb76 a83e f5de 24ba
00000020: a88b 7e3e e1af a03b 22b2 c2bc afad 56bd
00000030: 49a7 9b3d 310d 0ebd f3b1 cabc 737f 1c3e
00000040: f064 273e d66c e03d 1a54 843e b39b 9abc
00000050: 2f65 29be d7d7 613e a72d 243d b3dc 383e
00000060: 7cdc bb3c 9300 84be 0617 f5bd 42f9 2bbe
00000070: cdb2 c93d 3419 a33c 1c17 37bd 7628 8f3d
00000080: e5d4 423b e8ef 373e 1129 d9bd e328 cf3d
00000090: 0905 17bd 9772 163e 2970 6abd 1c0b ef3b
000000a0: f4ef 4cbd 4537 69ba d6f8 1abe 0ad8 10bd
000000b0: e16d 67bd 1342 6c3e 6092 72bd 4847 303e
000000c0: 104f 493e f79f 7d3e 717f 97bc 1565 d2bb
000000d0: 1d6a 133c ba02 16bd c5f8 0cbd b8bf 08bd
000000e0: 6d9a 25bc 3031 ccb8 5911 48bd 7d4d afbc
000000f0: f942 1cbd 95cb 383e f8b1 0abd 4e09 373e
-0.06455203 0.038612135 -0.028826825 0.17111814 0.26677528 -0.063296914 0.32903227 -0.00062893267
0.24857962 0.004903779 -0.023766581 -0.05241173 0.076002665 -0.03468055 -0.024743056 0.15282993
0.16347098 0.10958259 0.25845414 -0.018873071 -0.16542505 0.22054993 0.0400826 0.1805294
0.022932284 -0.25781688 -0.11967282 -0.16794303 0.09848557 0.019909479 -0.044699773 0.06990139
0.0029728946 0.1796261 -0.10603536 0.101152204 -0.036870036 0.1469215 -0.05723587 0.0072950255
-0.050033525 -0.00088964804 -0.15133986 -0.03536228 -0.056501273 0.2307208 -0.059221625 0.17214692
0.19659066 0.24768053 -0.018493386 -0.0064207413 0.008997467 -0.036623694 -0.034416933 -0.033385962
-0.010107619 -9.73664e-05 -0.04884467 -0.021399254 -0.038149808 0.1804641 -0.03386113 0.17874643

fc2.weight f4 [10, 64]
00000000: 665b 613d 568c 6d3e 6fba 9abd d05f d2bd
00000010: 61c2 8fbe f351 ac3d 3fe7 903d 62ac 2d3c
00000020: 5526 f83d c24d 843d c59b 8b3d 2fed aebc
00000030: b0e9 e43d 4ebc abbd 61f9 973d 4a06 0dbe
00000040: 4686 fc3d 3046 ebbd e86a c9be acda 4fbd
00000050: 5e4f 2f3d 4c76 003e cbc8 acbe 3a64 163e
00000060: a9a1 303e 9cc7 d63d f0c7 2cbe f29e cfbd
00000070: 017d 893e 6c53 d4bd 5fda 6ebb df00 9ebe
00000080: b085 b83c 22d3 9dbd 3b40 aa3d 7642 19be
00000090: 92c6 8d3c 7929 fdbe 22a7 123e 7053 05be
000000a0: 74ae a93d 68fd cd3e e952 083e c765 3dbd
000000b0: 3abd 29be bcde 97be e778 d3bd d950 e6bb
000000c0: c981 173e 76eb 6cbe 3152 b1bb 6ae3 2cbe
000000d0: 0eb4 983d ea8b 26bd fb14 adbc 8767 c3bd
000000e0: 9356 edbd a6e5 0fbe 9216 2c3c e0fa 1cbe
000000f0: e958 36bd b917 a53e e2bd c03c 289f babe
00000100: a4eb 85bd 2c95 9fbc 2e9d 45bd 05d5 75be
00000110: 3797 90be 0beb feba 7eba e8be 13a3 dabd
00000120: 512d 85be 9545 323d ac8f c93b 6ba3 743d
00000130: 083a 26be 2cba 86bd e4c3 f5bd 5ed4 d63d
00000140: 10d5 193f a7ec 903d 04ca d6bd 3219 773d
00000150: 1d0f 893e ffac 80be 7341 ba3e eef6 07bf
00000160: 26bc c63e c8a8 323e 56b4 d2bc f64d 073d
00000170: e0ef bfbd 17a5 fdbd 51ac a63b 627d 823d
00000180: 8a15 66bd 20a1 a33d 9f1b dc3d eaa1 593e
00000190: 4590 e63d 14a8 95bd 96b6 db3c bec3 bdbe
000001a0: feb8 b03d cba9 d8bd b41b 373c 2d25 a7ba
000001b0: 90db f33c 158e 7cbe 9870 1cbd f03f abbe
000001c0: 86e2 bcbe 9c5d 98be 542e 36bd 4616 9bbd
000001d0: aaa7 81bd 8290 b73d 01e2 74be dfa5 42bd
000001e0: f1d8 19bd 2b1d 3e3e 282c 273d 59c0 843d
000001f0: 6d0c 2d3c 9907 0fbd 7520 733e 5abe 643c
00000200: 41f7 c7bd d3fb 473e 367d 903d 92b9 91be
00000210: 2437 073e 7f70 1bbc 25d6 b63d bcd4 03be
00000220: 70c9 2fbe 8f5b b1bd 0a60 e6bd 684d d6bd
00000230: b3b1 60be 91d9 46bd 5c55 af3d 6103 1bbe
00000240: 5c9d b2be 9428 a1be 9a26 c83d 7e0e 73bd
00000250: 0126 27bd 97da 41be 80fc b7bd d745 cc3d
00000260: 1952 43be 22ce 98bd 50c2 8b3d 4bfd 703e
00000270: 293a 923b 1baa 32bd 7961 653d e0be b1bd
00000280: bc4a 0a3d b17e 8fbe f627 363e 3ea7 8abe
00000290: 63e2 af3d bce3 ccbd 5ab6 87bd 0c3d 643e
000002a0: 7cac 87bd 04ca a4bd 8360 9cbc a0c4 ae3c
000002b0: 7073 353c 2e64 753e b53f f2bd 23e9 5b3e
000002c0: 87c7 e43d a810 b73e c302 9cbd 8eaf 1dbf
000002d0: dca8 febd 4987 023d 861f 98bc 15fc f3bd
000002e0: f9af b0bd 7142 06be 1843 c5bc 000e bc3d
000002f0: 73b3 963d c9dc 8dbd 338d 523e 0fc8 20be
00000300: bdf1 a23d 099e 2fbe 752c a5bd 4ebb 783e
00000310: ea8f ba3d cb43 643b 0b8e 153e 399d c7bc
00000320: e86a 99bc 3a36 4ebd a33a fd3c 5818 b63b
00000330: 6238 473d d58b 68bd 02a0 473d 884b 223e
00000340: d415 8abe 1387 e83d 1cc1 e93d 0e38 78bd
00000350: d06f 803e 6108 fdbd 06b0 81be ebf0 85bc
00000360: cb02 83be f819 4fbe c5d3 7ebd f341 a6bd
00000370: 14c0 9e3d a78e cebd f9fe 223d 0d10 233d
00000380: 3b28 f73d 5fca 133d e9eb c53c 3bbb 0fbf
00000390: 5b59 8ebb e9e8 babd dfa1 b63d 0130 49be
000003a0: af6d 8b3d 6ba2 26be b74b c1bd 3524 05bb
000003b0: b7be d73d 8456 5bbe 12b7 dcbc 0804 6c3e
000003c0: e421 84be 59fb 89be 0520 f2bd 23ef 21be
000003d0: f3e9 e93b 7d8f b2bd 1e66 853d 05f0 c8bd
000003e0: 43e7 ad3c c319 f53a 75ae 73bd d786 57bd
000003f0: 1d9a f13d 2505 8fbe 92fb efbd 55b6 293e
0.055018805 0.23198065 -0.07555091 -0.10272181 -0.28077987 0.08414068 0.07075357 0.010600181
0.12116686 0.064601436 0.0681682 -0.021353332 0.11177385 -0.08385526 0.07420612 -0.1377193
0.12330298 -0.114879966 -0.39339375 -0.05074565 0.0428003 0.12545127 -0.33746943 0.14686671
0.17249168 0.10487291 -0.16873145 -0.10137738 0.26853183 -0.10367474 -0.0036446077 -0.3086004
0.022524685 -0.07706286 0.08313032 -0.14966759 0.0173066 -0.49445704 0.14321569 -0.1302011
0.082852274 0.40232396 0.13312878 -0.04623964 -0.1657609 -0.2966212 -0.10325795 -0.0070286808
0.14795603 -0.23136696 -0.0054114093 -0.16883627 0.07456218 -0.040660776 -0.021128168 -0.09541231
-0.11588778 -0.14052448 0.010503428 -0.15330076 -0.044518385 0.3224466 0.023528043 -0.36449552
-0.065390855 -0.01948031 -0.0482456 -0.24007042 -0.28240368 -0.001944871 -0.45454782 -0.10675635
-0.26011136 0.04352339 0.00615116 0.05972616 -0.16233075 -0.06578478 -0.12000254 0.104897246
0.6009073 0.07076388 -0.1048775 0.060326762 0.26769343 -0.25131986 0.3637806 -0.5311116
0.3881542 0.17447197 -0.025720757 0.033033334 -0.093719244 -0.12385004 0.0050864597 0.06371571
-0.056172885 0.079897165 0.10747456 0.21253172 0.11257986 -0.07307449 0.026820462 -0.37063402
0.086290345 -0.105792604 0.0111760385 -0.0012752168 0.029767781 -0.24663575 -0.038193315 -0.33447218
-0.36891574 -0.29758918 -0.044477776 -0.07572608 -0.063308075 0.089631096 -0.23914339 -0.04752147
-0.037560407 0.18565814 0.040813595 0.06482 0.010562045 -0.034919355 0.2374285 0.013961399
-0.09763957 0.19529657 0.07055132 -0.2846189 0.13204628 -0.00948727 0.089275636 -0.1287412
-0.17166686 -0.086600415 -0.11248787 -0.10463983 -0.21942787 -0.04854733 0.08561203 -0.15138008
-0.3488568 -0.3147627 0.09772988 -0.059339993 -0.040807728 -0.18931042 -0.089837074 0.099742584
-0.19074287 -0.07461192 0.068241715 0.23534124 0.0044624996 -0.043619256 0.05600116 -0.08678985
0.03376268 -0.28026345 0.17788681 -0.2708072 0.08588102 -0.100043744 -0.06626578 0.22288913
-0.06624696 -0.08046344 -0.01908899 0.021333992 0.011074886 0.23963997 -0.118285574 0.21475653
0.11170869 0.35754895 -0.07617714 -0.61596 -0.12434551 0.0318673 -0.018569719 -0.11913315
-0.08627314 -0.13111283 -0.024079844 0.09182358 0.07358446 -0.06926877 0.20561676 -0.15701316
0.07956264 -0.1715013 -0.0806512 0.24290201 0.09109481 0.0034830447 0.14604966 -0.024366962
-0.018727735 -0.050344683 0.03091175 0.005557101 0.048637755 -0.05677398 0.04873658 0.15849125
-0.2696978 0.11353888 0.11413786 -0.060600333 0.25085306 -0.12355114 -0.25329608 -0.01635023
-0.25588068 -0.2022475 -0.062213678 -0.081180476 0.0775148 -0.100858025 0.039793942 0.03981023
0.1206822 0.036081668 0.024160342 -0.56145066 -0.004344148 -0.09126455 0.08917593 -0.19647218
0.0680803 -0.16272895 -0.094382696 -0.002031577 0.10534423 -0.21419722 -0.026942763 0.23048413
-0.25807106 -0.26949576 -0.118225135 -0.1581388 0.0071384846 -0.087187745 0.06513618 -0.09811405
0.021228438 0.0018699694 -0.059492547 -0.052618828 0.11796973 -0.27933612 -0.11717905 0.1657346

fc2.bias f4 [10]
00000000: 7fce 1bbd 3020 aebe 8c5f 61bd 4140 943d
00000010: da20 a73e 4918 4dbd a9b5 4b3e 89fa 023d
00000020: 2f9e d1bd c90e 7ebe
-0.038038727 -0.34008932 -0.05502276 0.07238818 0.3264225 -0.05007199 0.19893517 0.03197721
-0.10235249 -0.24810328
