Models/latest_cnn.pth (torch, 494453 bytes, 10 tensors)

conv_layer1.weight f4 [32, 3, 3, 3]
-0.12612666 0.06049872 -0.071988806 -0.3115896 -0.27486712 0.10078187 -0.33041742 -0.17029874
0.07046632 0.06655475 -0.051898304 -0.205873 0.104956396 0.09552853 0.08149292 -0.07632018
-0.17917988 -0.090756275 0.16326022 0.14416209 -0.020303544 0.21793498 0.35107455 0.088886045
0.31178042 0.14629409 0.093232706 -0.21445005 0.16956955 0.23338199 -0.20123264 -0.19455498
-0.11089871 -0.15895982 0.09359591 -0.11159171 -0.17418413 -0.13955826 0.07624799 -0.22046758
-0.18765731 -0.23059253 -0.07079547 -0.066258766 -0.10781104 0.03413321 0.13704638 0.18308403
0.101700336 -0.054195218 0.11342054 0.114149794 0.135418 -0.020542981 -0.28198898 0.37024388
0.10784302 -0.18306923 0.29903993 0.13479246 -0.30978325 -0.020555254 0.14337139 -0.26189283
0.17187533 0.18381144 -0.29601136 -0.021538075 0.13661619 -0.21468061 0.009161679 -0.06792319
0.123745106 -0.016637715 -0.13464595 -0.19181037 -0.063564636 0.2444043 -0.01976281 -0.0004181019
-0.02936645 -0.11383109 0.026190737 0.0026785855 0.15810329 -0.14475562 0.1064165 -0.118702345
-0.018974755 0.13567874 0.012237588 0.011281226 -0.058577713 -0.08571145 -0.115593 -0.055958033
-0.13463356 0.18064964 0.14954756 -0.01297846 0.26669955 -0.026692288 0.14739867 -0.13067879
-0.10478246 0.00070516276 -0.06486166 -0.12481836 0.027726695 -0.0014570081 0.04070831 -0.24141432
0.14665262 0.2637872 -0.103057094 0.092698455 0.12537928 -0.07533398 -0.23945634 0.08539007
-0.2431541 -0.23817404 0.089610554 -0.28314286 0.044393033 0.021855276 -0.1797218 0.086394936
0.052017536 0.0066509047 0.20755616 -0.09101512 0.08829682 0.17320944 0.10198111 -0.07589418
0.0038329933 0.15595546 -0.023131715 0.14240795 0.16534175 0.23664708 0.2440412 -0.02185785
-0.21587437 -0.22849025 0.17459847 -0.1297584 -0.19676384 -0.105081856 -0.0654799 -0.110987
-0.30401635 0.15447448 -0.02893834 -0.017368402 -0.031705134 0.1577051 0.058870085 0.09092942
0.09819239 -0.21027432 0.16428185 0.21333805 -0.21162318 0.20294943 0.030521734 0.34872442
-0.13038552 -0.05861152 -0.20701103 -0.18598835 0.17787462 -0.17232837 -0.10014769 0.18882553
0.11410216 -0.08263463 -0.35367563 -0.0932318 -0.15412942 0.08193165 0.09716613 0.08166215
-0.037505016 0.17098267 0.011622143 -0.25719145 0.095496655 -0.15956955 -0.10647328 0.07124685
-0.09621488 0.054282438 0.07412532 -0.27552697 -0.25205156 -0.26850948 0.13820642 0.0014101038
-0.056399073 -0.018066889 0.06523216 0.11623214 0.015221443 -0.122443505 0.19440104 -0.10523051
0.00095907366 -0.21181074 0.23939827 0.009307213 0.07376118 0.27767757 0.26977265 -0.012236781
-0.10285275 0.17005187 -0.07664175 -0.08622662 0.24646445 -0.3178778 0.020873595 0.29219997
-0.13687094 0.15401135 -0.12928131 -0.24189228 0.14932734 0.114332914 -0.19940569 0.101043805
0.045978177 -0.18194465 0.06463666 0.18427517 -0.09368848 0.052448474 0.16851653 -0.17626058
0.031024175 0.18453223 -0.18178476 -0.17094252 0.33673602 -0.01665553 -0.40870523 0.16765858
-0.23055398 -0.0025105735 0.34192425 -0.047727503 -0.16589515 0.23918308 -0.13222076 -0.26021454
00000000: 5927 01be 81cd 773d de6e 93bd ac88 9fbe
00000010: 62bb 8cbe ba66 ce3d 792c a9be cb62 2ebe
00000020: a550 903d db4d 883d 5193 54bd 5fd0 52be
00000030: 61f3 d63d 76a4 c33d c3e5 a63d c14d 9cbd
00000040: ee7a 37be 6dde b9bd b02d 273e 3a9f 133e
00000050: 9e53 a6bc 592a 5f3e 0bc0 b33e e309 b63d
00000060: afa1 9f3e 1ece 153e caf0 be3d cb98 5bbe
00000070: a4a3 2d3e b0fb 6e3e ee0f 4ebe 6c39 47be
00000080: dd1e e3bd 5dc6 22be 36af bf3d 328a e4bd
00000090: 535d 32be 5ce8 0ebe e827 9c3d 41c2 61be
000000a0: 3d29 40be 7320 6cbe 37fd 90bd adb2 87bd
000000b0: 09cc dcbd 44cf 0b3d e355 0c3e 617a 3b3e
000000c0: 4448 d03d cefb 5dbd 0749 e83d 5ec7 e93d
000000d0: 04ab 0a3e c149 a8bc dc60 90be 9b90 bd3e
000000e0: cddc dc3d 8076 3bbe c31b 993e 0907 0a3e
000000f0: e99b 9ebe 7e63 a8bc f3cf 123e d116 86be
00000100: 1600 303e 1139 3c3e cd8e 97be 9e70 b0bc
00000110: 1de5 0b3e 3cd5 5bbe de1a 163c 501b 8bbd
00000120: 136e fd3d d14b 88bc a1e0 09be f069 44be
00000130: 2d2e 82bd 1f45 7a3e 9ee5 a1bc b034 dbb9
00000140: e991 f0bc 4620 e9bd f58d d63c 358b 2f3b
00000150: d4e5 213e d13a 14be e5f0 d93d 371a f3bd
00000160: f270 9bbc 5eef 0a3e 2a80 483c e4d4 383c
00000170: 2fef 6fbd 7c89 afbd 06bc ecbd 4034 65bd
00000180: 61dd 09be 38fc 383e ff22 193e 9ba3 54bc
00000190: d88c 883e c9a9 dabc adef 163e a9d0 05be
000001a0: 3098 d6bd acda 383a 31d6 84bd c5a0 ffbd
000001b0: 1823 e33c 14f9 beba c2bd 263d 5135 77be
000001c0: 1b2c 163e 1e0f 873e 990f d3bd b0d8 bd3d
000001d0: 6d63 003e b448 9abd 0b34 75be fde0 ae3d
000001e0: 63fd 78be e5e3 73be bd85 b73d 1af8 90be
000001f0: 78d5 353d d609 b33c fe08 38be d4ef b03d
00000200: 5710 553d d5ef d93b 9a89 543e 2366 babd
00000210: f7d4 b43d d15d 313e 79db d03d 686e 9bbd
00000220: f532 7b3b cab2 1f3e b97e bdbc 64d3 113e
00000230: 594f 293e 9d53 723e f0e5 793e 3c0f b3bc
00000240: 2c0e 5dbe 59f9 69be f1c9 323e 63df 04be
00000250: 767c 49be 2835 d7bd 531a 86bd 274d e3bd
00000260: 08a8 9bbe 8f2e 1e3e 1910 edbc 2e48 8ebc
00000270: 3edd 01bd 727d 213e c221 713d 3439 ba3d
00000280: 1719 c93d 2752 57be 8039 283e 4a75 5a3e
00000290: bfb3 58be fad1 4f3e b708 fa3c 028c b23e
000002a0: c883 05be a212 70bd b3fa 53be bb73 3ebe
000002b0: c424 363e d976 30be 3b1a cdbd 7b5b 413e
000002c0: 65ae e93d 583c a9bd f914 b5be 50f0 bebd
000002d0: 1ad4 1dbe c8cb a73d 09ff c63d 7c3e a73d
000002e0: dc9e 19bd 1516 2f3e cd6a 3e3c 99ae 83be
000002f0: c093 c33d 3366 23be aa0e dabd dee9 913d
00000300: 4f0c c5bd 4357 5e3d 04cf 973d df11 8dbe
00000310: e70c 81be 137a 89be fc85 0d3e 3bd3 b83a
00000320: b702 67bd 0301 94bc 7098 853d 1e0b ee3d
00000330: 5c63 793c a9c3 fabd 1111 473e 1883 d7bd
00000340: 586a 7b3a eae4 58be d224 753e 487d 183c
00000350: 1a10 973d c12b 8e3e a41f 8a3e c87c 48bc
00000360: 76a4 d2bd 1422 2e3e 5af6 9cbd 9597 b0bd
00000370: 2d61 7c3e e1c0 a2be 1aff aa3c 3c9b 953e
00000380: e527 0cbe 27b5 1d3e 5262 04be 9cb2 77be
00000390: 44e9 183e 6027 ea3d 0131 4cbe 0ef0 ce3d
000003a0: 9d53 3c3d b34f 3abe 3a60 843d a1b2 3c3e
000003b0: bfdf bfbd 36d4 563d 998f 2c3e a77d 34be
000003c0: 6926 fe3c 04f6 3c3e c925 3abe 8e0b 2fbe
000003d0: aa68 ac3e 2e71 88bc d041 d1be b1ae 2b3e
000003e0: 5816 6cbe 6f88 24bb b210 af3e ea7d 43bd
000003f0: 6be0 29be 69ec 743e e164 07be d73a 85be

conv_layer1.bias f4 [32]
0.018336996 -0.33546585 -0.15886979 0.0005200964 0.012511928 0.008597188 -0.054099474 0.1565134
0.0487026 -0.03361301 0.06082383 -0.06640923 -0.04559605 0.0414491 -0.012270063 -0.42037714
-0.008629006 0.03429794 -0.03550905 -0.085478626 -0.0033033956 -0.08441569 -0.012718039 -0.0022214453
-0.081986085 -0.0681647 -0.09467249 -0.37012798 -0.043921772 -0.02918119 -0.08776557 -0.24205163
00000000: 7837 963c 2ec2 abbe c3ae 22be 1457 083a
00000010: d4fe 4c3c 38db 0c3c 6997 5dbd 0c45 203e
00000020: 617c 473d ccad 09bd 6922 793d 9001 88bd
00000030: ecc2 3abd 88c6 293d 6008 49bc ac3b d7be
00000040: ad60 0dbc ff7b 0c3d f071 11bd 6b0f afbd
00000050: c87d 58bb 22e2 acbd 525f 50bc ab95 11bb
00000060: 52e8 a7bd ef99 8bbd a7e3 c1bd 6a81 bdbe
00000070: 51e7 33bd 640d efbc 6fbe b3bd 62dc 77be

conv_layer2.weight f4 [64, 32, 3, 3]
-0.006973258 0.041709304 0.033337902 0.04305387 -0.01759976 -0.005412717 0.039818488 -0.04483875
-0.054535888 -0.01919755 0.015688306 -0.050621398 -0.040730655 -0.038090136 0.003748625 -0.02480473
-0.06732832 -0.016523477 -0.0074324673 0.017909007 -0.018112563 0.036954448 -0.03858637 0.012244678
-0.012788006 0.048419043 -0.025417116 -0.062878646 0.0012091022 -0.022063239 0.024072466 -0.016681468
0.031648777 -0.046126593 -0.059229225 -0.020889798 -0.058211707 -0.05049294 0.019996272 0.02504214
0.0005936816 0.013467293 -0.06027485 -0.056333385 -0.054189015 0.024659062 -0.041759685 -0.07102182
0.019965772 -0.045451123 -0.0011266217 0.016181104 0.020997362 -0.0541599 0.024089776 0.0356281
-0.060440026 -0.04721808 0.015416097 0.017446714 -0.027854796 -0.03465575 -0.08261847 -0.0134738535
0.00251797 -0.0613134 0.023658128 0.0075599486 0.00035082753 0.019294366 0.037423242 -0.04538695
-0.012270508 0.0172044 -0.069221675 -0.07660148 0.0276516 0.005537949 0.0019082587 -0.043096498
0.032433107 0.040776603 -0.04508548 0.002242518 -0.051632047 0.010221516 -0.003178441 0.012366219
-0.0453116 0.024138017 -0.027770119 -0.05195613 -0.030669315 -0.047022764 0.022815155 -0.054271385
-0.050253585 -0.0005753908 -0.057871513 0.017270274 0.02787997 -0.021242602 0.006903364 0.02086274
0.010620395 -0.045860164 0.006990514 -0.045920234 -0.042519305 -0.006626009 -0.02817057 0.043082222
0.043663677 0.06017578 0.027035343 0.05109097 -0.027049365 -0.05355039 -0.0010528669 -0.043862768
-0.07220105 -0.0317664 -0.044284184 -0.06659521 -0.055575997 -0.054605767 0.043816954 0.042612948
-0.0030488574 -0.055585247 -0.046287794 0.003555475 -0.042663835 -0.028846385 -0.047479387 0.037769143
0.034446236 -0.042689215 -0.006044434 -0.010883084 -0.0022522334 -0.046607852 -0.020417288 0.00021736184
-0.047483794 -0.067521036 0.0169555 0.028997615 -0.016669858 -0.0376473 0.02929985 -0.00613195
0.011418612 -0.046481386 0.04823133 0.043623235 -0.04603183 0.018603055 0.00054206245 -0.0054238057
-0.04288224 -0.04725067 0.0037502388 -0.051759306 0.03924051 0.032382697 -0.02634805 -0.049485154
-0.04656858 -0.03086451 -0.038125888 0.057029657 0.031616498 -0.020252613 -0.041819848 -0.034150463
-0.01689548 -0.04451749 -0.00958781 -0.049502917 0.035972174 -0.06491299 -0.03857074 -0.0154658565
0.014549567 -0.074099906 -0.032026518 -0.025375443 0.03793008 -0.03017944 -0.041174043 -0.032780085
0.024008028 0.009557868 0.018338744 -0.020050786 0.048415467 -0.016577652 -0.042811137 0.032026675
0.009918561 0.027672924 0.014759746 -0.04708062 0.0020183604 0.0084703965 -0.04304813 -0.048520498
0.03186351 -0.017561898 -0.06975481 -0.03826603 -0.043228634 -0.0026926922 -0.012168269 -0.045391236
0.0097509865 -0.016677584 -0.034217667 -0.041183285 0.043433238 0.03068354 -0.024235431 -0.005602525
-0.07063187 0.0022735074 0.006116558 -0.02736065 0.012329547 0.00033714194 -0.016192025 -0.05822044
-0.022172498 0.0025767575 0.07579134 0.0035340998 -0.06965044 0.051810376 -0.054065052 0.019307856
0.037796564 -0.04384722 -0.014709701 -0.02030901 0.01389118 0.039320998 0.009937359 -0.0590051
-0.06481597 -0.014105314 0.00767308 -0.03388578 -0.076105855 -0.0073524006 -0.058284044 -0.053671233
00000000: ee7f e4bb 60d7 2a3d 538d 083d 4159 303d
00000010: 5f2d 90bc 295d b1bb b618 233d d6a8 37bd
00000020: 0661 5fbd 2e44 9dbc c384 803c 6258 4fbd
00000030: 30d5 26bd 6704 1cbd 7eab 753b 4a33 cbbc
00000040: 6ee3 89bd 3e5c 87bc 0e8c f3bb e9b5 923c
00000050: cc60 94bc 8c5d 173d be0c 1ebd e79d 483c
00000060: c984 51bc 0c53 463d 8e37 d0bc 85c6 80bd
00000070: bd7a 9e3a f7bd b4bc 9f33 c53c 93a7 88bc
00000080: 26a2 013d 3def 3cbd 589a 72bd 1521 abbc
00000090: 666f 6ebd afd1 4ebd 39cf a33c 2d25 cd3c
000000a0: 4ca1 1b3a eca5 5c3c c3e2 76bd d6bd 66bd
000000b0: 4df5 5dbd cd01 ca3c 340c 2bbd e373 91bd
000000c0: 428f a33c f52a 3abd 27ab 93ba 3c8e 843c
000000d0: a902 ac3c c5d6 5dbd ec57 c53c c5ee 113d
000000e0: f68f 77bd bf67 41bd cc93 7c3c 69ec 8e3c
000000f0: be2f e4bc 30f3 0dbd df33 a9bd 70c1 5cbc
00000100: 8704 253b c223 7bbd b1ce c13c 72b9 f73b
00000110: 46ef b739 380f 9e3c 1d49 193d abe7 39bd
00000120: 3e0a 49bc 3ef0 8c3c 18c4 8dbd 3de1 9cbd
00000130: 9c85 e23c af77 b53b 891e fa3a f485 30bd
00000140: 94d8 043d 5e05 273d 8dab 38bd 35f7 123b
00000150: 207c 53bd 2578 273c 644d 50bb af9b 4a3c
00000160: a898 39bd 17bd c53c 297e e3bc f3cf 54bd
00000170: 373e fbbc f19a 40bd d9e6 ba3c ac4b 5ebd
00000180: b4d6 4dbd d3d5 16ba ae0a 6dbd 647a 8d3c
00000190: 8964 e43c f704 aebc 9d35 e23b 56e8 aa3c
000001a0: 2a01 2e3c ded7 3bbd af10 e53b db16 3cbd
000001b0: b928 2ebd fe1e d9bb f8c5 e6bc fc76 303d
000001c0: afd8 323d e17a 763d 3979 dd3c c444 513d
000001d0: a196 ddbc a757 5bbd 5a00 8aba 72a9 33bd
000001e0: 25de 93bd 7c1d 02bd 5563 35bd 1263 88bd
000001f0: a8a3 63bd 4caa 5fbd 6879 333d ea8a 2e3d
00000200: 57cf 47bb 5bad 63bd 4598 3dbd f902 693b
00000210: 46c0 2ebd 414f ecbc bf79 42bd d1b3 1a3d
00000220: 7f17 0d3d e3da 2ebd 6310 c6bb f64e 32bc
00000230: 359a 13bb e0e7 3ebd 2842 a7bc a0eb 6339
00000240: 5e7e 42bd 7848 8abd 43e6 8a3c 688c ed3c
00000250: 3a8f 88bc 0e34 1abd 3d06 f03c 86ee c8bb
00000260: 2115 3b3c 4463 3ebd 378e 453d 47ae 323d
00000270: df8b 3cbd 6f65 983c 3219 0e3a 2eba b1bb
00000280: 4aa5 2fbd eb89 41bd 91c6 753b 9101 54bd
00000290: a8ba 203d b8a3 043d ded7 d7bc f2b0 4abd
000002a0: b2be 3ebd 92d7 fcbc e429 1cbd ee97 693d
000002b0: 4d80 013d cfe8 a5bc 4a4b 2bbd 5be1 0bbd
000002c0: 6468 8abc f957 36bd 3116 1dbc 92c3 4abd
000002d0: 8f57 133d 1af1 84bd 5afc 1dbd 8164 7dbc
000002e0: 4f61 6e3c b1c1 97bd 3d2e 03bd 29e0 cfbc
000002f0: 925c 1b3d df3a f7bc 1da6 28bd 6944 06bd
00000300: 7cac c43c 9b98 1c3c 223b 963c 8c41 a4bc
00000310: 4c4f 463d dbcd 87bc bb5a 2fbd 672e 033d
00000320: 7681 223c 54b2 e23c ddd2 713c 9cd7 40bd
00000330: 7846 043b 6bc7 0a3c 3c53 30bd 6ebd 46bd
00000340: 5083 023d f8dd 8fbc 9cdb 8ebd d7bc 1cbd
00000350: 8210 31bd e177 30bb 6b5d 47bc 29ec 39bd
00000360: 9ac2 1f3c 6e9f 88bc d327 0cbd ceaf 28bd
00000370: 0de7 313d 0c5c fb3c 6289 c6bc 6395 b7bb
00000380: 71a7 90bd 20ff 143b 686d c83b 7123 e0bc
00000390: de01 4a3c 6dc2 b039 23a5 84bc 8e78 6ebd
000003a0: 19a3 b5bc d1de 283b 7d38 9b3d 5b9c 673b
000003b0: e4a4 8ebd 1e37 543d 5173 5dbd 822b 9e3c
000003c0: 92d0 1a3d 2499 33bd f500 71bc 155f a6bc
000003d0: d597 633c 0e0f 213d 4ed0 223c 55af 71bd
000003e0: 3cbe 84bd fa19 67bc 766e fb3b d1cb 0abd
000003f0: 63dd 9bbd 68ec f0bb 40bb 6ebd 5ed6 5bbd

conv_layer2.bias f4 [64]
-0.0666801 -0.053322107 0.11216566 -0.12348201 0.28052443 -0.039472047 -0.0281053 0.015502826
0.050564386 -0.25330657 -0.00071837084 0.12977087 0.0062732873 -0.12952197 0.3264576 -0.036147505
-0.09250039 -0.030465905 0.11357129 -0.09157776 -0.25852403 -0.003988968 0.03349384 -0.055826653
0.05782439 -0.089919016 -0.047540806 -0.025701474 -0.017976774 -0.06650306 -0.13541126 -0.013043157
0.20273346 -0.073659696 -0.094267786 0.114879996 -0.0691939 0.07063645 -0.1601422 -0.08300954
-0.017187068 -0.054022133 0.021368934 -0.01940404 0.004682061 -0.20848991 0.22455075 -0.09448526
0.073991664 -0.03487419 -0.00068581646 -0.0014112906 -0.15277483 -0.107751384 -0.07868391 0.27302173
-0.10224896 -0.01656886 -0.17928526 0.18765604 0.25093883 0.13988107 0.2806929 -0.1092172
00000000: 948f 88bd 4868 5abd 1cb7 e53d 23e4 fcbd
00000010: e6a0 8f3e 71ad 21bd 163d e6bc 91ff 7d3c
00000020: 9a1c 4f3d 66b1 81be 0d51 3cba a8e2 043e
00000030: 2690 cd3b 68a1 04be 7325 a73e 680f 14bd
00000040: d870 bdbd a293 f9bc 1198 e83d 1f8d bbbd
00000050: 435d 84be e4b5 82bb d630 093d 7daa 64bd
00000060: 44d9 6c3d 7627 b8bd 26ba 42bd e68b d2bc
00000070: 0744 93bc c232 88bd 40a9 0abe f7b2 55bc
00000080: 5c99 4f3e e5da 96bd 780f c1bd 3446 eb3d
00000090: 88b5 8dbd d8a9 903d 51fc 23be e800 aabd
000000a0: e5cb 8cbc 5046 5dbd e70d af3c 39f5 9ebc
000000b0: f96b 993b 617e 55be a2f0 653e 7d81 c1bd
000000c0: f188 973d 3dd8 0ebd 5dc8 33ba 0efb b8ba
000000d0: 0171 1cbe c2ac dcbd 0825 a1bd 81c9 8b3e
000000e0: e767 d1bd 6bbb 87bc 8e96 37be e828 403e
000000f0: 0e7b 803e fc3c 0f3e fbb6 8f3e 44ad dfbd

conv_layer3.weight f4 [64, 64, 3, 3]
-0.013464813 0.030136669 -0.043999005 0.020246925 0.032020744 0.015615549 0.023684978 0.039214455
0.03975652 -0.024058996 -0.040138595 -0.05188568 0.0284019 0.02595493 0.020018233 0.055500895
0.011949513 -0.020531483 0.006056134 -0.026331687 0.033271182 0.017145159 -0.03984186 0.02941958
0.0081233205 0.031134574 -0.030881338 -0.0137971165 -0.00025887578 0.010322368 -0.04214537 -0.0067340876
0.017112186 -0.06890463 0.013289256 -0.033961833 -0.02596755 0.011979723 0.005563419 -0.07314516
-0.011041079 0.00068946905 -0.007333597 0.003466697 0.008029788 -0.042005047 -0.021099001 -0.03417616
-0.037519503 0.025432298 -0.03491971 -0.017911611 -0.062232774 0.0017047337 -0.043743826 0.016559701
0.035067417 -0.02704941 -0.009564389 0.017679565 0.0031122502 -0.0134789515 -0.0096899355 -0.016426012
-0.025800666 -0.00033286816 -0.045657575 -0.003317245 -0.013512055 -0.044700217 -0.0032502918 -0.032931056
0.011376547 0.0064089866 -0.022810945 0.020206494 -0.020034084 0.0122941965 0.014883472 -0.023883816
0.029120816 0.007250869 -0.015951687 0.020732539 -0.016980205 0.007042035 0.0013780992 0.008875801
-0.024776833 0.0002449591 -0.005339656 0.030124081 0.005132839 -0.036896635 0.020258501 -0.021261793
-0.03557584 0.03939157 0.034954075 0.012608131 0.0034717398 -0.022225851 0.011717909 0.0003432166
0.005522825 -0.030047556 -0.027463974 -0.019530676 0.0037942464 0.020914389 0.021385139 -0.0015680612
-0.03309246 -0.019372007 0.03160322 0.00852224 0.019747218 -0.05055554 0.007776095 0.005726531
0.018263046 0.010817203 0.019423684 0.016350215 -0.01584032 0.030329272 -0.06823241 -0.037670944
-0.049118455 0.0010119467 -0.04465911 -0.030045338 -0.014673868 -0.04697271 -0.07266945 -0.035170533
0.015430807 -0.05142264 -0.053896643 -0.0069719 -0.04107518 -0.0099832 -0.030897608 -0.011017176
-0.02564816 -0.021212883 0.013993816 -0.00015809586 -0.005182495 0.012427006 -0.057164025 0.03099102
-0.039725423 -0.047651067 -0.010305405 0.00019909338 -0.063896336 -0.029415851 -0.04012606 -0.016069802
-0.030650953 -0.05230996 -0.01726557 0.022959623 -0.043896753 -0.047398385 -0.0031875093 0.0113462135
-0.00520723 -0.060597368 -0.049133293 -0.038316775 -0.031624094 0.018573804 -0.00053541124 0.02727699
-0.047352966 -0.013874776 0.012787518 -0.0416085 0.00648756 0.0077064526 -0.017543294 -0.027089965
0.0035937794 -0.035190333 0.01809779 -0.014654582 -0.056480926 -0.043580424 0.0051784357 0.019621016
-0.08078016 -0.02404969 -0.033138283 -0.03274934 -0.04046179 0.00086203625 -0.034266867 -0.023762478
-0.0027341368 0.008117266 -0.04437239 0.018894915 0.0024199644 -0.022839943 -0.0049852994 0.028376624
0.01840658 0.024032686 -0.012926144 0.005341818 -0.02327645 0.040347684 0.004979862 -0.0021809766
-0.04346475 -0.0123311095 -0.046517085 -0.04378905 0.007802564 -0.039957616 0.0105721485 0.01157834
-0.047859 -0.04599165 -0.050674472 -0.021867804 -0.02437417 -0.018753678 -0.026107239 -0.041303065
-0.015048753 0.041008007 -0.04960927 -0.004890244 -0.003041014 -0.035142213 -0.039928716 -0.029164562
-0.0070199836 -0.0015259904 -0.021003263 -0.021511722 -0.028712936 -0.052467413 -0.039256155 -0.049463887
0.031087311 -0.022378448 -0.03895334 -0.031100873 0.0052566347 -0.039590895 0.005342856 -0.029865036
00000000: 859b 5cbc 2de1 f63c 4d38 34bd e1dc a53c
00000010: 2f28 033d 5cd8 7f3c 0007 c23c 569f 203d
00000020: bcd7 223d 5f17 c5bc 5e68 24bd 1486 54bd
00000030: 1aab e83c 6f9f d43c 47fd a33c e854 633d
00000040: e4c7 433c a431 a8bc 8972 c63b 8db5 d7bc
00000050: 5d47 083d 0174 8c3c 3831 23bd 5501 f13c
00000060: ad17 053c ef0d ff3c dcfa fcbc 4d0d 62bc
00000070: b8b9 87b9 261f 293c a0a0 2cbd 9fa9 dcbb
00000080: db2e 8c3c df1d 8dbd 2ebb 593c 901b 0bbd
00000090: e6b9 d4bc 9a46 443c 574d b63b 21cd 95bd
000000a0: a4e5 34bc 7cbd 343a ac4e f0bb 8631 633b
000000b0: 5f8f 033c 7c0d 2cbd d0d7 acbc 4dfc 0bbd
000000c0: 0dae 19bd 6557 d03c f807 0fbd 5fbb 92bc
000000d0: cbe7 7ebd 5f71 df3a ba2c 33bd 36a8 873c
000000e0: daa2 0f3d b996 ddbc f4b3 1cbc bcd4 903c
000000f0: e5f6 4b3b d2d6 5cbc 89c2 1ebc d88f 86bc
00000100: eb5b d3bc cf84 aeb9 7003 3bbd 2366 59bb
00000110: ab61 5dbc 9317 37bd d902 55bb b7e2 06bd
00000120: b264 3a3c 7a02 d23b 05de babc 1788 a53c
00000130: 851e a4bc 996d 493c ced9 733c fea7 c3bc
00000140: c78e ee3c b398 ed3b 1dad 82bc 49d7 a93c
00000150: 121a 8bbc dfc0 e63b 56a1 b43a cf6b 113c
00000160: c9f8 cabc db6d 8039 48f8 aebb c7c6 f63c
00000170: 6031 a83b ed20 17bd 28f5 a53c 362d aebc
00000180: f9b7 11bd 0e59 213d 012c 0f3d 5692 4e3c
00000190: 2186 633b fd12 b6bc 79fc 3f3c c1f1 b339
000001a0: d0f8 b43b 4b26 f6bc 21fc e0bc ccfe 9fbc
000001b0: e4a8 783b a754 ab3c e32f af3c 6787 cdba
000001c0: f68b 07bd 0bb2 9ebc 6172 013d dea0 0b3c
000001d0: ebc4 a13c 5313 4fbd 9dce fe3b a0a5 bb3b
000001e0: 629c 953c a33a 313c 6b1e 9f3c e3f0 853c
000001f0: 8fc3 81bc 1875 f83c 6fbd 8bbd d94c 1abd
00000200: 6f30 49bd 4ca3 843a 79ec 36bd a421 f6bc
00000210: aa6a 70bc 7566 40bd b8d3 94bd fa0e 10bd
00000220: 7fd1 7c3c 8ca0 52bd bac2 5cbd 8974 e4bb
00000230: 733e 28bd 9390 23bc fb1c fdbc 6381 34bc
00000240: 171c d2bc a4c6 adbc 5246 653c 89c6 25b9
00000250: ebd1 a9bb a49a 4b3c d324 6abd e1e0 fd3c
00000260: 20b7 22bd c42d 43bd 00d8 28bc b9c3 5039
00000270: 15dc 82bd 83f9 f0bc 395b 24bd d1a4 83bc
00000280: b517 fbbc f842 56bd 8670 8dbc d215 bc3c
00000290: 15cd 33bd cf24 42bd 88e5 50bb 78e5 393c
000002a0: 69a1 aabb f234 78bd fe3f 49bd 0df2 1cbd
000002b0: 4488 01bd 1728 983c d75a 0cba fe73 df3c
000002c0: 2ff5 41bd 0753 63bc bd82 513c ad6d 2abd
000002d0: 9995 d43b 6986 fc3b f4b6 8fbc c6eb ddbc
000002e0: 9d85 6b3b bd23 10bd d141 943c c619 70bc
000002f0: 8b58 67bd 6381 32bd deaf a93b 41bc a03c
00000300: 1270 a5bd db03 c5bc 02bc 07bd 2c24 06bd
00000310: 43bb 25bd 46fa 613a 6a5b 0cbd 87a9 c2bc
00000320: 342f 33bb 48fe 043c d3bf 35bd 82c9 9a3c
00000330: 4498 1e3b d51a bbbc b95b a3bb 1876 e83c
00000340: 65c9 963c 32e0 c43c 2dc8 53bc 6b0a af3b
00000350: 41ae bebc 9d43 253d 1c2e a33b b7ee 0ebb
00000360: 1808 32bd 6c08 4abc b388 3ebd 265c 33bd
00000370: a7ac ff3b 99aa 23bd ce36 2d3c 14b3 3d3c
00000380: cc07 44bd be61 3cbd 0990 4fbd 1c24 b3bc
00000390: 57ac c7bc 50a1 99bc d9de d5bc 672d 29bd
000003a0: 0b8f 76bc 03f8 273d 1733 4bbd 573e a0bb
000003b0: c04b 47bb 48f1 0fbd 4b8c 23bd 85ea eebc
000003c0: e407 e6bb be03 c8ba 090f acbc 5a39 b0bc
000003d0: 6437 ebbc 12e8 56bd 10cb 20bd a59a 4abd
000003e0: d1aa fe3c 0253 b7bc 8a8d 1fbd 42c7 febc
000003f0: d93f ac3b 102a 22bd 2013 af3b 85a7 f4bc

conv_layer3.bias f4 [64]
-0.04629901 0.21062598 0.095474444 -0.021664027 -0.02624499 -0.028636102 0.0029737125 -0.00041067624
-0.09542821 -0.053469855 -0.021364957 0.16797367 0.21665704 0.017719258 0.18190108 0.04589376
0.21523191 -0.044798616 0.15874448 -0.06239378 0.11024247 -0.004098665 0.2717749 0.06649822
-0.05850821 0.07875399 0.20763868 0.2522358 -0.06550482 0.03537391 -0.0907709 -0.007242084
0.20923047 0.20545466 0.3372579 0.16270955 -0.06584378 -0.020431513 -0.007604291 -0.008076285
-0.026817707 0.2765288 -0.07925627 -0.029773112 0.030199796 -0.046849437 -0.1615656 0.06807847
0.28647906 -0.05877812 -0.015077569 -0.272248 0.016401842 0.061631683 -0.031077795 0.100120656
-0.052178446 0.20454496 0.08039925 -0.03594111 0.11260634 -0.034966853 0.26596913 0.3517433
00000000: 08a4 3dbd 56ae 573e 1b88 c33d c278 b1bc
00000010: bcff d6bc 4296 eabc 9ee2 423b 0850 d7b9
00000020: de6f c3bd 3503 5bbd 9005 afbc 4a01 2c3e
00000030: 58db 5d3e fa27 913c 4744 3a3e 18fb 3b3d
00000040: c165 5c3e c17e 37bd ea8d 223e 9f90 7fbd
00000050: cec6 e13d 184e 86bb 1426 8b3e 3830 883d
00000060: 4ea6 6fbd c649 a13d 3c9f 543e 0d25 813e
00000070: 6427 86bd 3ce4 103d 18e6 b9bd 014f edbb
00000080: 8340 563e b562 523e 11ad ac3e 559d 263e
00000090: 1bd9 86bd fd5f a7bc 6b2d f9bb 6552 04bc
000000a0: cfb0 dbbc 2f95 8d3e 1c51 a2bd bee6 f3bc
000000b0: 9065 f73c 32e5 3fbd 7471 25be ba6c 8b3d
000000c0: 62ad 923e 53c1 70bd e807 77bc 1764 8bbe
000000d0: 285d 863c 8171 7c3d dc96 febc 0f0c cd3d
000000e0: 11b9 55bd 3c74 513e 5da8 a43d fc36 13bd
000000f0: 279e e63d 6739 0fbd 1b2d 883e b317 b43e

fc1.weight f4 [64, 1024]
-0.01634959 -0.029444644 0.0061016646 -0.011208622 -0.0059806216 -0.032122813 -0.024290692 -0.02808299
0.0010674122 -0.01691534 0.016104566 -0.00815766 -0.017280042 0.019989176 -0.022366878 -0.025414541
0.034729037 0.003956968 -0.01940207 0.032038644 0.016622547 0.027265703 0.021653242 0.045536943
-0.028102774 -0.035307705 -0.023815263 -0.013129776 -0.025073178 -0.041708127 -0.010352884 -0.0014761712
-0.024737459 -0.017981596 -0.027334293 0.015282139 -0.0019538456 0.03999218 0.027296754 0.009689985
0.0071978285 -0.00052107096 0.017491361 0.044598024 -0.07108672 0.007558061 -0.0334836 -4.9025122e-05
-0.08859693 -0.05224937 0.023659306 0.010603584 -0.035176758 -0.010844664 -0.016789837 -0.008252055
-0.0097519085 -0.012622335 0.035022493 -0.0025437085 -0.04027798 -0.06368559 0.01724998 0.007888671
0.0053507467 0.017174128 -0.021714294 -0.032316677 0.024130747 -0.005632347 0.014085167 -0.00827495
-0.022303792 0.008966749 -0.018403428 -0.016257446 -0.0143841235 -0.003973171 -0.033642314 0.0046135727
-0.015343983 0.03230155 -0.025164302 0.021403084 0.0101875 -0.030197488 -0.026446428 0.028389022
0.008262016 -0.030927815 0.009938059 -0.02362271 -0.016449235 0.004135852 -0.020807683 0.033591453
-0.029959949 -0.016143491 -0.041473348 0.0049246484 0.003948469 -0.005263712 -0.045797285 -0.035018913
-0.068700925 -0.0341183 -0.02922214 -0.00220989 -0.04361864 0.0012192093 -0.036013566 0.023108486
0.03064386 -0.028768376 0.00062220654 -0.0008454779 -0.00020991999 -0.017911829 -0.018399894 0.03511313
0.004028366 -0.0032628586 0.017183559 0.012160067 0.030563349 0.0130489785 -0.0050797234 -0.0050326297
-0.005619005 0.016254801 -0.011527692 -0.03918311 0.02596674 0.02119895 0.027841927 0.0055851266
0.012185331 0.033199634 0.047157202 0.011709983 0.022398759 0.0029565059 -0.02143992 -0.015643165
-0.023843974 -0.022839788 -0.0017304979 -0.015649822 0.0072137043 -0.006905306 0.004297618 -0.02974759
-0.014663056 0.008834146 -0.011877447 -0.023987684 -0.024919301 -0.019965008 0.012218874 -0.0013769642
-0.00458899 -0.014108222 -0.0077031343 0.000789862 0.0006847176 0.018608762 -0.0059284745 0.027839888
-0.01497879 0.0357607 0.0023516081 -8.324534e-05 -0.032710396 -0.014628729 -0.021041524 0.008434606
0.004785058 -0.030716445 0.02277946 0.0029847478 0.025951589 0.018041078 0.01813303 -0.020936063
0.014881257 -0.029495047 -0.01132532 -0.0265877 0.005597332 -0.0046786596 -0.08642434 -0.045081623
-0.041169718 -0.010632806 -0.00021618676 0.055627912 -0.0011319425 0.029845543 0.023273999 0.010161172
0.02753951 0.010095516 0.001675296 0.015445338 -0.03589349 -0.072270796 -0.07680654 -0.062327858
-0.00039366735 -0.0139211835 0.008807608 0.0026170094 0.008417077 0.01365771 0.029846303 0.013386078
-0.023944784 -0.006473654 -0.00449883 -0.033998255 -0.0005544083 -0.021602523 0.012970454 -0.010124685
0.010450997 0.0055038813 -0.022449616 -0.010349536 -0.010193401 0.015152237 -0.023847807 -0.021153005
0.043063946 0.062247276 0.023633292 -0.032462355 0.0806646 -0.0011346842 -0.025272818 0.0005519424
-0.035381388 -0.0003483707 -0.011774228 -0.05231095 -0.04249675 -0.009712693 -0.039090797 -0.040035408
-0.04320463 -0.03445352 -0.0029980913 -0.01130526 0.0012411226 -0.011890685 0.015756369 0.017336667
00000000: 93ef 85bc e535 f1bc 79f0 c73b 5ea4 37bc
00000010: 17f9 c3bb 3693 03bd 46fd c6bc 4c0e e6bc
00000020: 69e8 8b3a 0a92 8abc b9ed 833c b5a7 05bc
00000030: e08e 8dbc 57c0 a33c be3a b7bc 2832 d0bc
00000040: 0940 0e3d 74a9 813b 17f1 9ebc f43a 033d
00000050: 022c 883c 535c df3c 2462 b13c f284 3a3d
00000060: ca37 e6bc d09e 10bd 3a18 c3bc 461e 57bc
00000070: 4466 cdbc 24d6 2abd 259f 29bc 167c c1ba
00000080: 36a6 cabc 244e 93bc 2bec dfbc f061 7a3c
00000090: 170c 00bb d7ce 233d 719d df3c bec2 1e3c
000000a0: c3db eb3b 7b98 08ba 0b4a 8f3c 6bac 363d
000000b0: ea95 91bd 9ca9 f73b 1926 09bd 53a0 4db8
000000c0: 4f72 b5bd 6f03 56bd 29d1 c13c a8ba 2d3c
000000d0: 8115 10bd d1ad 31bc d78a 89bc a133 07bc
000000e0: 78c6 1fbc e9cd 4ebc bf73 0f3d 59b4 26bb
000000f0: 86fa 24bd 976d 82bd d44f 8d3c 7c3f 013c
00000100: 5155 af3b c2b0 8c3c 2de2 b1bc 7e5e 04bd
00000110: d8ad c53c 8d8f b8bb 79c5 663c a893 07bc
00000120: 71b6 b6bc 45e9 123c c9c2 96bc 562e 85bc
00000130: 63ab 6bbc 6031 82bb 86cc 09bd 742d 973b
00000140: 5465 7bbc a14e 043d 5e25 cebc 8555 af3c
00000150: 79e9 263c b960 f7bc 2ea6 d8bc 1890 e83c
00000160: 685d 073c 545c fdbc 3ed3 223c 6a84 c1bc
00000170: 8cc0 86bc 0b86 873b e074 aabc 3197 093d
00000180: 916e f5bc 5b3f 84bc f5df 29bd f25e a13b
00000190: 2962 813b 377b acbb ef95 3bbd fe6f 0fbd
000001a0: 12b3 8cbd a1bf 0bbd 4563 efbc cdd3 10bb
000001b0: 76a9 32bd e0cd 9f3a f682 13bd 024e bd3c
000001c0: d508 fb3c a8ab ebbc 931b 233a 10a3 5dba
000001d0: f81d 5cb9 d4bb 92bc 60bb 96bc c9d2 0f3d
000001e0: 6200 843b afd5 55bb 89c4 8c3c 053b 473c
000001f0: fd5f fa3c 62cb 553c cf73 a6bb c2e8 a4bb
00000200: a11f b8bb ca28 853c a5de 3cbc 787e 20bd
00000210: 33b8 d43c 6ca9 ad3c c114 e43c 7003 b73b
00000220: fca4 473c 57fc 073d e927 413d 3bdb 3f3c
00000230: 9a7d b73c f0c1 413b c5a2 afbc 1826 80bc
00000240: 7054 c3bc 821a bbbc e0d1 e2ba 0e34 80bc
00000250: f060 ec3b e845 e2bb 08d3 8c3b 38b1 f3bc
00000260: 503d 70bc 18bd 103c a099 42bc d281 c4bc
00000270: 9023 ccbc a88d a3bc ac31 483c 407b b4ba
00000280: 3d5f 96bb 2c26 67bc 936a fcbb be0e 4f3a
00000290: 9f7e 333a 6771 983c a643 c2bb 7a10 e43c
000002a0: 9969 75bc d079 123d 701d 1a3b 0094 aeb8
000002b0: 56fb 05bd 56ad 6fbc 465f acbc 4d31 0a3c
000002c0: facb 9c3b 0ea1 fbbc fd9b ba3c c29b 433b
000002d0: 6d98 d43c e2ca 933c b88b 943c 1b82 abbc
000002e0: 84d0 733c 999f f1bc d68d 39bc 73ce d9bc
000002f0: d369 b73b 714f 99bb 3fff b0bd 82a7 38bd
00000300: 94a1 28bd 3935 2ebc 31b0 62b9 18da 633d
00000310: b05d 94ba a47e f43c 1da9 be3c 0b7b 263c
00000320: 8a9a e13c aa67 253c 9b95 db3a 710e 7d3c
00000330: 0d05 13bd b602 94bd bf4c 9dbd 7f4b 7fbd
00000340: 2365 ceb9 ad15 64bc c94d 103c 2282 2b3b
00000350: c8e7 093c 96c4 5f3c 3c80 f43c 4851 5b3c
00000360: da27 c4bc f220 d4bb ec6a 93bb c141 0bbd
00000370: b655 11ba c6f7 b0bc 0782 543c 02e2 25bc
00000380: a93a 2b3c e759 b43b 42e8 b7bc 1a91 29bc
00000390: 3902 27bc 1741 783c 7a5c c3bc 1149 adbc
000003a0: d263 303d 00f7 7e3d 9b9a c13c 3ff7 04bd
000003b0: 7b33 a53d afb9 94ba f108 cfbc 3ab0 103a
000003c0: 13ec 10bd 86a5 b6b9 b1e8 40bc 0244 56bd
000003d0: 1211 2ebd fd21 1fbc ac1d 20bd 2bfc 23bd
000003e0: 57f7 30bd 221f 0dbd a07b 44bb b239 39bc
000003f0: 2aad a23a 26d1 42bc 8013 813c a005 8e3c

fc1.bias f4 [64]
-0.045209818 0.0097176945 0.07664172 -0.026371969 0.035285536 0.03468396 0.017507052 -0.04090176
0.09166664 0.06555458 -0.027976455 -0.05531222 -0.0354108 -0.010030568 -0.019567281 -0.014650808
-0.04192151 -0.047170557 -0.05385675 -0.008657703 -0.057079468 0.08461471 -0.038326666 -0.09613063
-0.008785315 -0.037606757 0.031029306 -0.0019402078 0.048458442 0.22577704 -0.051616684 0.17658563
0.15027924 0.15769549 -0.008354015 0.117347054 0.0043475023 -0.073333964 0.047800124 -0.1630733
0.019191405 0.1495455 -0.074801914 -0.035324425 -0.051741593 0.0125153875 0.11814237 -0.034694772
-0.032222435 0.116510704 0.11513358 -0.08409595 -0.10222782 0.2003073 0.19945589 0.15550674
-0.06532422 0.019611139 0.22841793 -0.110818565 -0.021541176 0.03205699 -0.037180968 0.09514097
00000000: ee2d 39bd f736 1f3c 56f6 9c3d 070a d8bc
00000010: 9187 103d c510 0e3d f36a 8f3c 9b88 27bd
00000020: b8bb bb3d 7b41 863d e12e e5bc 118f 62bd
00000030: ea0a 11bd 4057 24bc 904b a0bc f109 70bc
00000040: e4b5 2bbd ea35 41bd e598 5cbd 0ad9 0dbc
00000050: 29cc 69bd 7a4a ad3d 6cfc 1cbd 23e0 c4bd
00000060: 48f0 0fbc 8b09 1abd 2c31 fe3c 924e feba
00000070: 5c7c 463d 1932 673e 046c 53bd ddd2 343e
00000080: cde2 193e ed7a 213e 47df 08bc a753 f03d
00000090: 7e75 8e3b 1e30 96bd 10ca 433d b0fc 26be
000000a0: 4b37 9d3c 7522 193e bf31 99bd 58b0 10bd
000000b0: feee 53bd 570d 4d3c a0f4 f13d 1b1c 0ebd
000000c0: acfb 03bd 2a9d ee3d 28cb eb3d 7f3a acbd
000000d0: d25c d1bd 5b1d 4d3e 2a3e 4c3e 293d 1f3e
000000e0: b4c8 85bd 8aa7 a03c 64e6 693e d8f4 e2bd
000000f0: 1f77 b0bc 314e 033d 124b 18bd 45d9 c23d

fc2.weight f4 [10, 64]
-0.06945298 0.1407186 -0.3434434 -0.10895364 -0.3318747 0.29719213 0.053448416 0.2404581
0.17029755 0.026825363 0.0010587141 0.13029632 -0.084545985 0.11538173 0.09403568 0.0971954
0.04615101 -0.08155267 -0.0067671062 -0.07821439 -0.016500903 0.10354204 -0.055655994 -0.19818048
0.004390493 -0.13985647 -0.030399319 -0.39512464 -0.31665438 -0.17094482 0.022702161 0.15837017
-0.22130731 0.19217831 -0.049570456 -0.04265383 -0.014064409 0.14497793 -0.14377512 0.13212143
0.11963248 0.009451161 -0.2427972 -0.023920042 0.15159546 -0.095031664 -0.14707758 0.091072746
-0.061823554 -0.1344664 0.08546411 0.049611352 -0.19967912 -0.05157365 0.030056033 -0.054970924
-0.068126775 -0.047317877 -0.04990497 -0.25527942 -0.008847765 -0.19201103 -0.093023166 -0.016171133
-0.00043125526 -0.0032578565 -0.2842713 -0.06005162 0.07373372 -0.1100319 0.11699419 -0.07001872
0.06775711 -0.05127812 0.0716542 0.103458636 0.067492 0.006721392 -0.06483128 0.07806167
0.013378942 -0.00863776 -0.10347836 -0.06118631 0.18658604 -0.30916208 0.100062564 0.5304493
-0.012145628 -0.13604775 -0.01612342 0.22369416 -0.0800844 -0.3110639 0.069652356 -0.100208595
0.1621599 -0.24463782 0.053308845 0.094098926 -0.11476312 -0.20589665 0.22002144 0.21482357
0.022589508 -0.41905934 0.04330476 -0.04504294 0.09008599 -0.021132782 -0.2799769 -0.08932503
-0.063198194 -0.010538074 -0.25211057 0.11914434 0.06873149 0.09043074 -0.06103902 -0.23893933
0.07355603 0.048483647 -0.33704683 0.25358552 -0.07459961 -0.16846134 -0.08279098 -0.30551207
-0.10757717 0.35000962 -0.27736995 -0.026297858 -0.102854945 -0.13239479 -0.017555472 0.07339611
-0.072890036 -0.029886931 -0.08097183 -0.065270424 0.052131172 -0.01796915 0.04468132 -0.17663139
0.070788704 -0.015474446 0.04813787 -0.015574091 -0.1338023 0.18197508 -0.10121489 -0.31619596
-0.011485768 -0.08428173 -0.15354939 0.008216091 -0.12774646 -0.08275302 0.02465165 -0.11568647
0.1308189 -0.28689188 -0.07127479 -0.1380092 0.016019726 0.30201855 0.014437339 0.0783787
-0.3059712 0.20724772 -0.18054551 0.046679746 0.0717139 -0.036306467 0.16821043 -0.10753384
-0.0044319117 -0.3024109 0.033067442 0.17594405 -0.09878147 -0.018650653 -0.3435499 0.07816542
0.06524615 0.14627482 0.053375363 -0.31063518 -0.08837232 0.31132683 0.10031636 0.23996438
-0.055152625 -0.21068503 -0.06997449 0.0006150215 0.11862228 -0.021028012 0.05573222 -0.024948267
0.008050476 -0.38574672 -0.0577592 -0.06316806 -0.068624064 -0.06675975 0.06800414 -0.046139777
-0.116968036 0.084391676 0.05064725 -0.05425112 0.14306252 -0.055466246 0.05139859 0.059179254
-0.11661041 0.010789439 0.12054399 0.022497095 -0.037638184 -0.063189484 0.044939015 0.13856168
-0.1137448 -0.041617442 0.09675089 -0.1419153 -0.02814431 -0.19713853 -0.2978617 -0.020708112
-0.11300721 0.04327996 0.09299613 -0.008782283 -0.12358051 -0.09486982 0.05389532 0.077135526
0.07338377 0.23717137 0.10304854 0.015633376 -0.02745818 -0.16563265 0.13198787 0.122495666
0.049298875 -0.1846874 0.14832789 0.09504906 0.01801725 0.087192565 0.055419624 0.110910386
00000000: 5d3d 8ebd 8918 103e d0d7 afbe 1623 dfbd
00000010: 7beb a9be 9129 983e baec 5a3d a63a 763e
00000020: 7b62 2e3e ddc0 db3c 8dc4 8a3a 666c 053e
00000030: 7226 adbd 424d ec3d c795 c03d 620e c73d
00000040: d708 3d3d 1605 a7bd 9abe ddbb de2e a0bd
00000050: e72c 87bc d90d d43d 8af7 63bd d3ef 4abe
00000060: 20de 8f3b 8936 0fbe fe07 f9bc c74d cabe
00000070: 8620 a2be 290c 2fbe e2f9 b93c ca2b 223e
00000080: 629e 62be 64ca 443e 640a 4bbd c8b5 2ebd
00000090: 686e 66bc 1875 143e c939 13be d74a 073e
000000a0: e001 f53d 0bd9 1a3c d49f 78be f7f3 c3bc
000000b0: d73b 1b3e f69f c2bd 819b 16be 5984 ba3d
000000c0: b23a 7dbd 8fb1 09be cf07 af3d 4635 4b3d
000000d0: af78 4cbe e43e 53bd 1238 f63c 3129 61bd
000000e0: 0d86 8bbd 64d0 41bd 2769 4cbd fcb3 82be
000000f0: 37f6 10bc 8a9e 44be ee82 bebd 5379 84bc
00000100: 1a1a e2b9 c381 55bb 028c 91be b0f8 75bd
00000110: b401 973d 6858 e1bd a69a ef3d fa65 8fbd
00000120: 3dc4 8a3d 0209 52bd 70bf 923d 1fe2 d33d
00000130: 3f39 8a3d 1f3f dc3b 43c6 84bd ccde 9f3d
00000140: 5a33 5b3c 6485 0dbc 76ec d3bd 7f9e 7abd
00000150: 6910 3f3e 7e4a 9ebe 9aed cc3d 86cb 073f
00000160: 75fe 46bc 1a50 0bbe 4315 84bc 1510 653e
00000170: 4a03 a4bd c443 9fbe e5a5 8e3d 2a3a cdbd
00000180: 3f0d 263e 5682 7abe 605a 5a3d f0b6 c03d
00000190: ed08 ebbd 92d6 52be 4d4d 613e b6fa 5b3e
000001a0: a20d b93c f28e d6be 5560 313d f27e 38bd
000001b0: 017f b83d a81e adbc 2259 8fbe 0bf0 b6bd
000001c0: 0e6e 81bd e3a7 2cbc a314 81be f301 f43d
000001d0: 18c3 8c3d c033 b93d 0d04 7abd 83ac 74be
000001e0: 8ba4 963d ca96 463d 6791 acbe f6d5 813e
000001f0: aec7 98bd 2181 2cbe 518e a9bd 146c 9cbe
00000200: 6b51 dcbd 7634 b33e 6f03 8ebe 9b6e d7bc
00000210: 9da5 d2bd 8092 07be 7ed0 8fbc b350 963d
00000220: 5f47 95bd 70d5 f4bc 8fd4 a5bd 80ac 85bd
00000230: 7f87 553d 0a34 93bc c303 373d dcde 34be
00000240: abf9 903d 8888 7dbc 372c 453d 792a 7fbc
00000250: 7803 09be ad57 3a3e c149 cfbd 70e4 a1be
00000260: cd2e 3cbc e69b acbd 0d3c 1dbe c99c 063c
00000270: f8cf 02be 6a7a a9bd 42f2 c93c 07ed ecbd
00000280: 64f5 053e 7ee3 92be 84f8 91bd 4952 0dbe
00000290: cd3b 833c 2da2 9a3e 978a 6c3c 0385 a03d
000002a0: 42a8 9cbe bf38 543e ece0 38be 4333 3f3d
000002b0: bdde 923d 17b6 14bd 5b3f 2c3e b43a dcbd
000002c0: 9239 91bb 9ad5 9abe ba71 073d ad2a 343e
000002d0: f04d cabd 41c9 98bc c6e5 afbe 3115 a03d
000002e0: c69f 853d 11c9 153e 20a0 5a3d 930b 9fbe
000002f0: 8cfc b4bd 3b66 9f3e aa72 cd3d 39b9 753e
00000300: b8e7 61bd d1bd 57be c94e 8fbd 6539 213a
00000310: 3df0 f23d f042 acbc 7847 643d 4f60 ccbc
00000320: 25e6 033c 9880 c5be e994 6cbd 415e 81bd
00000330: c68a 8cbd 56b9 88bd c145 8b3d 10fd 3cbd
00000340: f08c efbd 8bd5 ac3d 7e73 4f3d 6c36 5ebd
00000350: fb7e 123e 9330 63bd 5487 523d f265 723d
00000360: 70d1 eebd 30c6 303c c4df f63d d44b b83c
00000370: 7f2a 1abd 7d69 81bd f911 383d 1de3 0d3e
00000380: 09f3 e8bd 0d77 2abd 5525 c63d 3f52 11be
00000390: e58e e6bc afde 49be 5481 98be 0fa4 a9bc
000003a0: 5370 e7bd 5446 313d c174 be3d 91e3 0fbc
000003b0: c717 fdbd 1c4b c2bd 57c1 5c3d 3bf9 9d3d
000003c0: 3b4a 963d 0ddd 723e 1d0b d33d 9111 803c
000003d0: faef e0bc 9b9b 29be d427 073e 02df fa3d
000003e0: 9eed 493d b21e 3dbe 44e3 173e 15a9 c23d
000003f0: e998 933c 0492 b23d b0ff 623d fc24 e33d

fc2.bias f4 [10]
-0.028689053 -0.18562272 0.06295741 0.0114768455 0.3086733 0.0800475 -0.022314226 -0.1172763
0.09266964 0.07077381
00000000: 4e05 ebbc e213 3ebe d1ef 803d 6109 3c3c
00000010: 6d0a 9e3e f2ef a33d 53cc b6bc 8f2e f0bd
00000020: 95c9 bd3d dcf1 903d
